myapp/save/cifar_net.pth (torch, 251391 bytes, 10 tensors)

conv1.weight f4 [6, 3, 5, 5]
00000000: ad95 5d3e 053e 113e 65c7 013e 86e2 373e
00000010: b4b4 af3c 48ee 8ebd 05ca 90bd 529f 5c3e
00000020: b272 2f3e 56e3 1cbe 933f 8abd b6b0 98be
00000030: 4c99 9b3e fabf bf3e 6ac2 debd 3995 41bd
00000040: 04ba 89be 7006 533e b506 a43e 6df4 b7bc
00000050: 038f 10bd a7b1 03be c8c9 4c3e 624c 523e
00000060: c8d4 5b3d 2696 2cbe 8abc a1be 07dd 9ebd
00000070: 9c35 f7bd 2f6b 81be 7b70 a8be 8f60 a9be
00000080: 946b f63d 0c82 6a3e a2e0 acbc 43cb dabe
00000090: 9ce4 0bbf 479e 1c3e 23e7 a53e 2930 f6bd
000000a0: 4b85 4cbe c1a8 01bf 8193 fa3d 02ca ad3e
000000b0: 86ca 1bbc e390 13be 5e61 dcbe 65ed c8bc
000000c0: 67a4 813e 97b7 b6bb 6b81 12be 6d06 66bd
000000d0: d80a ba3d cea5 383e 58dd bbbd ee62 5ebe
000000e0: a19c 6dbe e74b a83e 678d ce3e 2747 e1bd
000000f0: 6106 a1be 27c2 93be 9394 873e dcc4 e53e
00000100: ba83 b73d d7af 50be 080e 8fbe f7d0 9a3e
00000110: 34b4 dc3e 6da2 503c 3a49 b3bb fee1 d1bd
00000120: 56d9 763d 4dab a93e afa3 a23d 3a70 d33d
00000130: ec85 8f3d baba 2d3e 75c4 fbbd d27c 83be
00000140: 00e0 90bd 5322 14be a546 50be 8f8d c5be
00000150: 42b5 56be 9d59 a7be 67d4 fcbe 96ad e9be
00000160: 937b 5ebe 265a fb3d cbf1 81bd 810c d63d
00000170: 057f a83d e06b 013e 71b5 703e 9ae7 9c3e
00000180: ce1b cd3e 6ba6 e03e 1f40 933e 1d99 6d3e
00000190: bccd fb3d a7a5 9f3e 27a2 903e df9e 253e
000001a0: 2435 3dbe 1e23 3f3d 21e2 433d 067e 08be
000001b0: b52f 80be ce2d a2bd 8466 38be 581f c2be
000001c0: 73ca a0be 5794 a4be 9d93 dd3d 9d5e dfbc
000001d0: 1315 51bd 96fb 823c 9f17 363e c84a 3d3e
000001e0: 9c1c 583b 07b1 3c3e 92b5 c53e 060f 083e
000001f0: 7a4f de3d 0b60 843d 2283 2b3e 5ac0 b43d
00000200: a476 0b3e 7d61 a63c 2c89 083e 10d5 2f3e
00000210: cbe8 74bd 5012 3fbe a09b 29bd 940d 74be
00000220: 8b7a 9cbe 04d0 dcbe 6a37 d9bd 7f8c 153e
00000230: 0aaf 6dbe 45f3 1abe 8a6d 2aba 11a2 ca3d
00000240: 8d6f 72bb 2678 3c3d d098 673e 94e8 5e3e
00000250: 1fe7 e43d ba6d 84bd 52bf 3bbd 1af3 1ebe
00000260: 86d0 4d3d eeee 14bd 3f5d 483d e7b1 7dbe
00000270: c3d7 0abe bd3a 58be 9b00 a9bd af0d 253b
00000280: eb57 01be bd4c 97be 81ea 67be 0c72 38be
00000290: fe2d 70bd f6b8 12be 96b8 fdbd 7b53 87bd
000002a0: a944 5ebe 79ee 12be 3487 60be 9267 07be
000002b0: 6047 ddbd 9ced 15bd 316d 913b c5ca 02be
000002c0: 509e 13be b9c2 0ebe 0adf 2bbd 9387 f73c
000002d0: 1a40 91bd 6d35 9d3c 65b6 fd3a 1f3a bcbd
000002e0: 920d 87bd 41bd 13bd 890a efbd 4ec0 133d
000002f0: fa2a 453c ae5c 0abc be48 f3bc 4fed 763d
00000300: f058 283d 0e42 633d a834 da3c 5a34 6bbd
00000310: 3220 c5bd 9f37 8dbc 5465 06bd 5bbd b0bc
00000320: 3e3d 163e 1944 4c3e 9c66 543e 4856 7a3e
00000330: 58c4 193e 345b 4d3e 3018 833e d782 863e
00000340: 6266 863e 0819 133e ef06 ea3d 48f1 8b3e
00000350: 78a1 113e a777 923e 61d4 343e 4de0 993d
00000360: 5821 1f3e 2114 4d3e 8d90 813e f785 ce3d
00000370: d8b4 673d 683b 103e 5678 6c3d c01d 253e
00000380: 7c04 8cbc 943b 863e fd86 a23d c8ca 21be
00000390: 8090 74bd 7f2b a9bd 959a 9c3e 7fb8 aa3d
000003a0: d683 99be 4838 08be ef19 0f3e 4c39 c73d
000003b0: b200 e7bd 14b7 92be 7a46 fdbd 16b0 0b3d
000003c0: a45e ec3d 2b60 39bb 1b8d abbe 14e6 88be
000003d0: 7af7 3abd f657 3a3d d552 2f3e ec6a 82be
000003e0: 5fcd 87be 6c5b ac3c abec 8e3e 5747 033d
000003f0: 0356 16be 78ff 2dbe f92d 17be 9336 493e
0.21639128 0.14183815 0.12673719 0.17957506 0.02144847 -0.06979042 -0.07069782 0.21545151
0.17133597 -0.15321097 -0.06750407 -0.2982232 0.30390394 0.37451154 -0.10876925 -0.04726145
-0.2689973 0.20607924 0.32036367 -0.022455418 -0.035292637 -0.12860738 0.19998848 0.2053695
0.05366972 -0.16854152 -0.31589156 -0.07757001 -0.12070772 -0.25277087 -0.32898316 -0.3308148
0.12032238 0.22901171 -0.021103207 -0.427332 -0.54645705 0.15294753 0.32402906 -0.120209046
-0.19972722 -0.50648123 0.122351654 0.33943182 -0.009508735 -0.14410739 -0.43043035 -0.024527261
0.25320742 -0.005576085 -0.14307182 -0.05615847 0.090840995 0.18032 -0.09173077 -0.21717426
-0.2320428 0.3287041 0.40342256 -0.10999899 -0.3145018 -0.28859064 0.2648054 0.44876754
0.08960672 -0.20379578 -0.27940392 0.30237553 0.43106234 0.012734038 -0.005471376 -0.10248183
0.06026586 0.33138505 0.079413764 0.1032414 0.070079654 0.16965762 -0.122933306 -0.25681168
-0.070739746 -0.14466219 -0.20339449 -0.38584563 -0.20967582 -0.32685557 -0.493808 -0.45640248
-0.21726827 0.12273054 -0.063449465 0.10451604 0.08227352 0.12638807 0.23506714 0.30645448
0.40060276 0.43876967 0.28759858 0.2320294 0.122951 0.3118107 0.28248712 0.16173886
-0.18477303 0.04666435 0.047823075 -0.13329324 -0.25036398 -0.07918893 -0.18007857 -0.37914538
-0.31404456 -0.32144424 0.108191706 -0.027266795 -0.05104549 0.015989106 0.17782448 0.18485558
0.0032976037 0.18426906 0.3861509 0.13286981 0.10855003 0.06463631 0.16749242 0.08825751
0.13619477 0.020310158 0.13333577 0.1717112 -0.05979232 -0.1865933 -0.04140818 -0.23833305
-0.30562243 -0.43127453 -0.106062725 0.14604376 -0.23211303 -0.15131862 -0.0006501308 0.09894193
-0.003699276 0.04601302 0.22616887 0.21768409 0.11176895 -0.06466241 -0.045836754 -0.15522423
0.05024769 -0.036360674 0.04891705 -0.24774896 -0.13558869 -0.21116157 -0.082520686 0.0025185158
-0.12631194 -0.29550734 -0.2264805 -0.18012255 -0.05863761 -0.1432837 -0.123887226 -0.066077195
-0.2170588 -0.14348783 -0.21926576 -0.13223103 -0.10804629 -0.036603555 0.0044380655 -0.12772663
-0.1441586 -0.13941468 -0.041960754 0.030216014 -0.070923045 0.019190514 0.0019356726 -0.09190773
-0.06594385 -0.03606916 -0.11671931 0.036072068 0.012034172 -0.008444948 -0.029697772 0.06028491
0.041100442 0.055482917 0.026636437 -0.057422973 -0.096252814 -0.017238436 -0.032811478 -0.021574667
0.146718 0.19947852 0.20742267 0.24446976 0.15016305 0.20054322 0.2560439 0.26271698
0.26249987 0.14365017 0.11427104 0.2733252 0.14221752 0.28606912 0.17659141 0.07513485
0.15540063 0.2002721 0.25305596 0.100841455 0.05656895 0.14085162 0.05773195 0.1612463
-0.017091982 0.2621733 0.07935903 -0.15800011 -0.05970812 -0.08260249 0.30586687 0.08335971
-0.29983395 -0.1330272 0.13974737 0.097277254 -0.112794295 -0.28655303 -0.12366958 0.034103476
0.11541489 -0.002828608 -0.33506092 -0.26738036 -0.04564617 0.045494042 0.17121442 -0.254722
-0.26523873 0.021039687 0.27914938 0.032050457 -0.14681248 -0.16991985 -0.14763631 0.19649725

conv1.bias f4 [6]
00000000: ece9 1fbe c9c5 6fbe 59d3 013f 3fa8 233c
00000010: 8656 34be 7217 0cbf
-0.15616578 -0.23415293 0.50713116 0.009988843 -0.17611131 -0.54723275

conv2.weight f4 [16, 6, 5, 5]
00000000: 28c2 693e 8345 94bd 7626 96be cba7 54be
00000010: ec10 48bd c72b bd3c b164 7d3e 3340 003e
00000020: dfbc 08be a677 c4bd accb 03bb 112b 5ebd
00000030: 1a36 893e cb1f fa3d 70b0 9cbd 0260 d8bb
00000040: 6198 27bd e75c c5bd a5b6 a73d ba42 1c3e
00000050: b2d9 44be 7e6f 49be f8b2 2fbe bda8 1fbe
00000060: cdfc be3c 05a7 79bd bbb5 99bd 617d 2c3d
00000070: 7854 4ebd b1a6 a3ba 63e1 ae3b 28cb 39bd
00000080: 0a2b 5fbd b27d 9fbd e4d5 83bd 0e20 b43d
00000090: 4224 683c f3bf 2cbd 4d74 7cbd 4877 50bd
000000a0: 2032 88bd a1b5 99bc 99f7 803d 51d1 bd3d
000000b0: d62f 69bd 5306 b5bd 0dd6 9ebb 7804 2d3d
000000c0: cdb9 3f3d 16d9 af3c 4b86 db3d 8ac2 e03d
000000d0: ce63 413e 8556 2f3e 818e 9bbc e760 17be
000000e0: b759 e9bb 2252 7c3d e7ba 2f3d 4636 ee3c
000000f0: 5658 5ebe b553 24be 8824 b93d c798 e83d
00000100: 76c6 29bc 06ef a6bd b683 61be e863 19be
00000110: eec6 883d a6c2 9c3d 513b 3abc b602 c9bd
00000120: 55ed 35be 75de 8dbd af30 f7bd 75d5 23be
00000130: b389 91bd 3880 85bc 36f7 fab9 bf43 53bb
00000140: 0d54 363e f0d6 89bd e559 04bd 112b 443c
00000150: bc93 bf3d a161 323e 6961 063d 67c5 edbd
00000160: 037a 8ebc b79e 60bd 2c51 043e f78e 1f3e
00000170: 89d4 8dbd 8d02 0fbe affb 05be 49cb d4bd
00000180: 62ac e5bc f5c7 b63c c28a 22be 3681 44be
00000190: a333 7c3e 8c9d a4bd 7781 353d 1638 293e
000001a0: a4c2 c0bc 3530 cf3e 95dd 293e f32c eebc
000001b0: b1b5 93bd 79d7 e5bc 1bc1 a23d f20a d83e
000001c0: 788f 523e bd2b c0bd d7a1 efbd 3d16 de3c
000001d0: 11ef 0a3e 4ff2 8d3e 4474 573e 4359 a9bd
000001e0: afbb 0f3c 9863 433c 9d77 0b3e e58c 2f3e
000001f0: 8fb6 003e a8b7 cd3c 0dbc 5cbd 16dd 02be
00000200: e497 a4bd 3eb8 b7bb 6d5b 02bd 2d5a c0bd
00000210: e61c f7bd 536f c8bd f463 13bd 94f6 29be
00000220: 1064 f13c 1e4f 1dbd 029a 693d 8f39 03be
00000230: 7f63 0fbe ef9a 13be 52fd 813d ff6c 243d
00000240: a4c4 95bd ff99 11be ab11 2fbd 7c37 f4bc
00000250: a61a ddbb 98f2 bdbd 90ef 98be 97b7 8fbe
00000260: faaf 20be 2067 0fbd b41f 3a3e 05ef a5be
00000270: 415a 4fbe 4478 abbd 66ff f73d 4374 f83d
00000280: f320 6abe eee5 3bbe c45a e63c da50 263e
00000290: 4d98 0c3e 09d7 a0be 3010 9abd f678 fe3d
000002a0: 820f 403e a786 623d 5494 88be a244 02be
000002b0: 71e9 8abb 6f70 1f3e fc01 aa3c 0865 cdbc
000002c0: 6e48 f2bc 7237 9dbd 8258 083c 4139 143e
000002d0: 5879 e03d eb67 363d 9fb3 95bd 0b1b 5bbc
000002e0: 3a28 013e 2b8d 0d3e 870e fd3c 50b1 f4bd
000002f0: 0917 fabc 35c6 83bd 2392 e73c 1763 c9bd
00000300: e1f5 22bd 74c5 0ebe 8b94 eabd eb7a 92bd
00000310: 2502 50be f438 ffbd 5e11 b9bd 406e 2fbe
00000320: 8b98 8f3d cfdf 90bd 3840 a6bd 4127 00be
00000330: 0fe2 9abd 23f7 1b3c ae9d 5bbc 44fb 15be
00000340: b16e 34bd 489d 693d e3bf 973d c8d5 fc3b
00000350: 88f7 50bd 533b ac3d a52e 6a3d a216 443c
00000360: 6c76 abbd fadb 3fbc aa3a a63d d108 883d
00000370: 5328 d4bd 4088 9abc a818 8cbd a1b6 003d
00000380: 1dc6 43bd 3230 22be d37a 36bc d33b 963d
00000390: db66 b03d 1986 40bd 150f 89be f7e0 33bb
000003a0: caea 813e f8c9 3e3e 03c7 f1bd e2c5 32be
000003b0: 5e1a a43c f30d 9d3e ecbe 0f3e a04e 9e3c
000003c0: d388 64be 1c58 b93c f984 9e3e 2e23 f23d
000003d0: 38d2 99bd c36f 2cbe 5db6 9c3c 3f76 f03d
000003e0: 9511 243e 422d 83bd 6c3e 9c3c 6dbf bfbd
000003f0: bd0b 7ebd 0fac 32bd 00df faba 958e cb3c
0.22827971 -0.07239821 -0.29326218 -0.20767133 -0.048844263 0.023092164 0.24745442 0.1252449
-0.13353299 -0.09593134 -0.0020110412 -0.05424029 0.2679909 0.12213095 -0.0765084 -0.006603242
-0.040916804 -0.0963686 0.081891336 0.15259829 -0.19223669 -0.19671437 -0.17158115 -0.15591712
0.023313904 -0.060950298 -0.075053655 0.04211176 -0.050373524 -0.0012485591 0.005336927 -0.04535976
-0.054484405 -0.07787646 -0.06437281 0.087951764 0.014168801 -0.042175245 -0.06163435 -0.050895005
-0.066501856 -0.018763365 0.062972255 0.092684396 -0.056930386 -0.08839097 -0.004847294 0.04224059
0.046808053 0.02146582 0.10718974 0.109746054 0.18885729 0.17122848 -0.01898885 -0.14783059
-0.0071212905 0.061601765 0.042902853 0.029078614 -0.21713385 -0.16047557 0.09040171 0.11357265
-0.010362258 -0.08151059 -0.220229 -0.14979517 0.06678568 0.07654314 -0.011366681 -0.0981497
-0.17766316 -0.06927196 -0.120698325 -0.15999396 -0.07106342 -0.016296491 -0.00047867902 -0.0032236425
0.178055 -0.06730449 -0.032312293 0.011973158 0.0935435 0.17420055 0.03280774 -0.11609917
-0.017392164 -0.054838862 0.1292159 0.1558188 -0.069253035 -0.13965817 -0.13084291 -0.10390336
-0.0280363 0.022312144 -0.15873244 -0.19189915 0.24629073 -0.08037862 0.04431292 0.16525301
-0.023530312 0.40466467 0.16588433 -0.029074168 -0.07212389 -0.028056847 0.07946988 0.4219585
0.20562541 -0.093833424 -0.117007904 0.027110213 0.13567759 0.2772393 0.21040446 -0.082689784
0.008772775 0.0119256005 0.13619848 0.17143591 0.1256964 0.025111988 -0.053890277 -0.1277965
-0.08036783 -0.00560668 -0.03182547 -0.093922 -0.12066059 -0.097868584 -0.035983995 -0.16597968
0.029466659 -0.03840553 0.05703164 -0.12814926 -0.14002798 -0.14414571 0.06347145 0.04014301
-0.07312897 -0.14218901 -0.04274146 -0.029811613 -0.0067475615 -0.09274787 -0.29870272 -0.28069755
-0.1569213 -0.035010457 0.18176156 -0.3240892 -0.20249273 -0.08372548 0.1210926 0.1213155
-0.22864132 -0.1834943 0.028119452 0.1624178 0.13729973 -0.3141406 -0.07522619 0.12425415
0.18755916 0.055304196 -0.26675665 -0.12721494 -0.004239254 0.15570234 0.0207529 -0.02507259
-0.029575553 -0.07676591 0.008321883 0.14474966 0.109606445 0.044532698 -0.07309651 -0.013373147
0.12613001 0.13823383 0.030890716 -0.11947882 -0.030528562 -0.06434289 0.028267926 -0.09833353
-0.03978527 -0.1394251 -0.114541136 -0.07152351 -0.20313318 -0.12462035 -0.09036516 -0.17131901
0.07011517 -0.07073938 -0.081177175 -0.12514974 -0.075626485 0.009519371 -0.013404293 -0.14646631
-0.044050876 0.05703476 0.07409646 0.0077159144 -0.051017314 0.08409753 0.05717339 0.011968287
-0.083721966 -0.011710161 0.08116658 0.066423066 -0.10359254 -0.018863797 -0.0684064 0.03142417
-0.047796357 -0.15838698 -0.011137682 0.07335629 0.08613368 -0.047002885 -0.2676932 -0.0027447322
0.25374442 0.18631732 -0.118055366 -0.17458299 0.020032104 0.30674705 0.14037675 0.0193246
-0.2231782 0.022625022 0.30960825 0.11823116 -0.07510799 -0.16839509 0.019129926 0.11741304
0.16022332 -0.064051166 0.019072734 -0.093626834 -0.062022913 -0.04362112 -0.0019139946 0.024848262

conv2.bias f4 [16]
00000000: 01f6 98bd 0191 e9bd 9dc0 5b3e 8776 a63e
00000010: b0f7 b93e 4601 36be ab41 a5be 3490 49be
00000020: 9d7b ee3d b5cd c9bd 0e97 93bd da5c ea3e
00000030: c387 1abf 5db1 47be 15ca 833f 471b 01bf
-0.074687965 -0.114046104 0.21460195 0.32512304 0.36321783 -0.17773923 -0.32276663 -0.19683915
0.11644671 -0.09853689 -0.07206546 0.45773965 -0.60363406 -0.19501252 1.0296046 -0.50432247

fc1.weight f4 [120, 400]
00000000: ad04 ae3c 382b a33d cbfd a33d 982a 103c
00000010: 1cdd 16bd 6595 553c 628d 223c e42c 17bd
00000020: d034 2d3d e956 193d cf68 743d 03b0 b13c
00000030: a1d6 193d 3eaa 3f3d e761 ac3c 87cc d0bd
00000040: d330 ac3d 6c1b 523d 7463 c73d 60d1 933d
00000050: 3676 81bd 57f0 1ebd c3e7 0c3d 33b3 e33c
00000060: 580d a83c 4c60 bf3c 1e10 753d 19f2 7139
00000070: 7b01 a33d 9b27 8a3d 58f6 0b3c 81b6 723d
00000080: 518e ce3c a584 84bc 6854 903d aa46 493d
00000090: aeea 6b3b 39a6 7a3d d2c3 2fbd e117 333d
000000a0: 4258 383d ef0a 873b 7378 5e3c 4fe1 8fbd
000000b0: 5e28 cb3c 5d3b fc39 336f c3bc ac6b 0ebd
000000c0: f7dc e23c a687 8a3d 9f61 113d 961b c8bc
000000d0: 18fa d8bc 8d5a e6bc 61b2 763d 99f4 103c
000000e0: 24a9 b73c 7a5d ff3c a7a5 f8ba 7094 413d
000000f0: dba4 31bd f42e 0cbd 2dde f53c 29d0 b13b
00000100: ee2e b8bb f22a 6dbd c1d4 a2bb b217 cfbc
00000110: 70d6 2ebd 7963 d9bc 367a 2cbd 9d88 9abd
00000120: ec6b 94bd 04a5 42bc 59d4 36bd 3934 00bd
00000130: 24e4 5ebb 69b9 10bd bc9d 653d b19c 633c
00000140: 67d3 9fbd 9fe9 7ebd 273f a43d 8de1 773d
00000150: 6c6c ddbc 04cd 9e3c a428 bcb9 0b6d 29bc
00000160: 5fe7 473d c2b4 07bd 54f2 39bd 9d64 bf3c
00000170: b552 203c 4190 793c 3091 53bd b262 3e3d
00000180: 40e1 4e3c 7e7f c93d 73fa e53c 6f8b d23d
00000190: 221b 9c3d 0e63 23bd f92b 8fbc 92c1 f73c
000001a0: a962 a33d c27f 0e3d ac84 94bb 7c77 2e3c
000001b0: 33c8 a23d 556e 85ba 4fb5 153c 4c91 6dbd
000001c0: 9711 67bd 17ef c33b f0b5 c5bc 56fb 103d
000001d0: fe32 73bd bf50 c3bc 8978 05bc 2c9f 1abd
000001e0: 910a ac3c 0139 f0bc a636 83bd a639 11bc
000001f0: 6df0 703c 8ccd 90bd e8ec 24bd 65d5 e03b
00000200: 5cef 7d3d 21fc 813c 7537 13bd d558 50bd
00000210: 5e07 49bd 4f48 f9ba 5486 32bb 6089 733a
00000220: bdb0 66bd a2f2 c1bd 9747 1cbc 65b5 8dbd
00000230: 1d40 713c dac2 36bd 1419 3abd c2d6 c7bc
00000240: 64ce c3bc a8d9 df3c 6a7b b8bb b467 9dba
00000250: a248 a9bc e676 85bc c9f8 0f3d 73db 293d
00000260: 2130 babc a50f 9dbc 7bd7 a33d f4a0 693d
00000270: e418 b9bc c4c0 8fbd 5c12 c6bc d453 4f3c
00000280: e1c6 89bb 2e05 f53b b32b 463d 2332 92bc
00000290: 1fec 1a3d 3270 b7bc 93f3 333c d9ab 89bd
000002a0: ceb3 283d ae52 97bc b22f 4bbc d401 98bd
000002b0: dc55 4ebd e005 0f3d de72 86bd ec5c 863d
000002c0: b61f 2c3d 9128 023c 906c 91bd 5425 313a
000002d0: 2dad bf3c 23be 3f3c fb71 cbbc b07c 46bd
000002e0: 6daa a3bd f34d c63c c4bd 413c 5752 b5bc
000002f0: 8e1c 083d 2608 b4bb 5d3a 443a 7951 a53c
00000300: 07b8 963d f062 0f3d 07a8 9a3c 173d 213d
00000310: 7036 a33d bc66 b53d 7b9f 07bc d4a5 a53c
00000320: 6116 aa3c cda6 28bd 6eb3 1ebd c414 2b3d
00000330: 314e 733c e759 adbb 2e90 23bd bbfb 4b3b
00000340: 50be 473d 3bf6 423d e77c b1bd fddc 13bd
00000350: e253 903b 1f88 5b3d 4243 d63c 790a 09bd
00000360: c5c9 893d f682 903c 8f29 0c3d b0c6 84b9
00000370: 089f c73d 0fa9 863d adfd e43c 0695 103d
00000380: 22af a53c 6a2f abbb 89c2 2abc 3a60 ebbb
00000390: 0aca c03c 2a68 13bd 87c1 273c f0d9 39bc
000003a0: c2a7 443c 3b4f 5fbd 4120 273c ef29 563a
000003b0: 2b4e 693c 659d 003d ddf8 3dbd 50e2 bbbc
000003c0: c6e2 2e3d 2c1c 073d 32d3 c2bc 2a57 323c
000003d0: fb4f f43a 37e4 1ebc 4ea1 de3c 821c 87bd
000003e0: b56c cbbc ec71 3ebb e757 ef3c a90f b13c
000003f0: 9ad9 383b 92cf c43c 9947 143d 2fa3 b0bd
0.021242464 0.07967228 0.080073915 0.008799218 -0.03683196 0.013036107 0.009921404 -0.036908045
0.042286694 0.0374364 0.059670266 0.021690374 0.0375582 0.046793215 0.021042777 -0.101952605
0.0840775 0.051295683 0.09735766 0.072176695 -0.06321375 -0.038803425 0.034400713 0.02779541
0.020514175 0.023361348 0.059829824 0.0002307374 0.07959267 0.067458354 0.00854262 0.05925608
0.025214346 -0.016176531 0.07047349 0.049139656 0.0035998034 0.06119368 -0.04291136 0.043723945
0.045006044 0.0041211764 0.013578522 -0.07025396 0.024799522 0.00048109415 -0.023856735 -0.034770653
0.027693255 0.06764154 0.03549349 -0.024427217 -0.026486441 -0.02811935 0.06022871 0.008847379
0.02241952 0.031172503 -0.0018970267 0.0472607 -0.04337011 -0.034224465 0.030013168 0.005426426
-0.005620829 -0.057902284 -0.00496921 -0.025279853 -0.042684972 -0.02653669 -0.042108737 -0.07545588
-0.07247147 -0.011880163 -0.044636104 -0.031299803 -0.0034010494 -0.03533307 0.05605863 0.013892339
-0.07803994 -0.062234517 0.08019858 0.060517836 -0.027029239 0.019384868 -0.00035888434 -0.010340939
0.048804637 -0.03313137 -0.045397118 0.023363406 0.009785344 0.015232147 -0.051652133 0.046480842
0.012626946 0.0983877 0.028073525 0.10280501 0.07622363 -0.039889388 -0.017477022 0.030243669
0.07977802 0.034789808 -0.0045324173 0.0106486045 0.07948341 -0.0010179976 0.009137466 -0.057999894
-0.05641326 0.0059794295 -0.024134606 0.035395943 -0.0593748 -0.023842214 -0.008146414 -0.037749454
0.021001132 -0.029324057 -0.06406908 -0.008863842 0.0147057595 -0.07070455 -0.040264994 0.006861376
0.06199585 0.015867295 -0.03594156 -0.050865967 -0.04907929 -0.0019018742 -0.002724071 0.0009290185
-0.056320895 -0.09470107 -0.009538553 -0.06919364 0.014724758 -0.04461942 -0.045434073 -0.024394397
-0.023902126 0.027325466 -0.0056299465 -0.0012009055 -0.020664517 -0.016292047 0.03514937 0.04146905
-0.022728028 -0.019172499 0.08000084 0.057038262 -0.022594877 -0.07019189 -0.024178676 0.0126542635
-0.0042046164 0.007477424 0.04838152 -0.017846173 0.03782284 -0.022392366 0.010983366 -0.067222305
0.0411871 -0.018472042 -0.012401508 -0.07422224 -0.05037485 0.034917712 -0.06564878 0.06560692
0.04202243 0.007944242 -0.07100785 0.00067575765 0.023398006 0.011703047 -0.024834624 -0.048458755
-0.079914905 0.024207091 0.011825029 -0.02213399 0.033230357 -0.0054941354 0.00074855034 0.02018045
0.07359319 0.035006464 0.01887895 0.0393649 0.079693675 0.08857486 -0.008277769 0.020220675
0.020762624 -0.0411747 -0.038745336 0.04176785 0.014850185 -0.005290258 -0.039932422 0.0031125385
0.04876548 0.047598105 -0.08666401 -0.036099423 0.004404531 0.053596612 0.026155118 -0.033457253
0.067279376 0.017640572 0.03421932 -0.00025325036 0.0974713 0.06575214 0.027952993 0.03529837
0.020225111 -0.005224158 -0.010422357 -0.007183102 0.02353384 -0.03598801 0.010239012 -0.011343464
0.012002887 -0.05451892 0.010200561 0.0008169701 0.014239828 0.031400103 -0.046379913 -0.022935063
0.042696737 0.03298585 -0.023782346 0.010885039 0.0018639559 -0.009697965 0.027176525 -0.06597234
-0.024832109 -0.0029059602 0.02921672 0.021613913 0.0028205873 0.024024758 0.036201093 -0.08624875

fc1.bias f4 [120]
00000000: 2fed b9bd 4bea 2c3e b6ce 91bd e975 963d
00000010: 92f7 b1bc 7e4a 653d 7dec 27bd 8868 723d
00000020: 2416 983d c261 313d d46b 9a3c 3d2a 3d3d
00000030: 6485 87bb b058 e93d 5167 85bc 20d9 cabc
00000040: f421 8c3b ae37 06be 362f b0bb deaa a0bc
00000050: 1d27 e63c 37ea 8c3d a81b 5e3e 8028 0dbd
00000060: d09d 453d 1cfa 1cbd 36d7 c33d ca3a cf3c
00000070: b759 893a 750a a23d 9c3b ca3d 1cc9 9d3d
00000080: 6bea a23d 564d 3bbc e354 a1bc dbcc 843c
00000090: b144 72bd 2f54 8fbd 3bd2 bb3d 38d8 533e
000000a0: 754a 053d 7b96 44ba e323 16be d568 3cbd
000000b0: dadb c83d 68b3 a8bd b9e7 283c 053c 2b3c
000000c0: eb07 b33c c4ff 4f3d 6d5e 763b 40e6 b1bd
000000d0: 26a9 8fbc e4d3 2fbd 2fce 08be 2fb4 58bd
000000e0: 9791 89bc 8430 333e 79aa ca3d 73a5 1b3e
000000f0: 2b2f 0b3d f52b 73bc a84b 12be 0407 91bd
00000100: abe3 5abd 7879 003e 72f6 843d 505e 64bd
00000110: 1390 cf3d caef 6dbd c8af f5bc 5c76 903c
00000120: 2aec f33c 34f4 813d aa41 1b3e 00a9 92bd
00000130: 2f5c acbc efb4 f23c 6b38 0fbd 90d7 30bd
00000140: a5b1 043e 878c c1bc 1184 2dbd 8052 9abb
00000150: 6793 543e e0dc 49bd 98b8 9b3d 24b8 4cbc
00000160: 1a9c b53c 5aa5 6c3d 512c 8f3e 2033 5f3c
00000170: d15b fcbc 6c7a 493d 3075 08be a10f 003c
00000180: f09b e9bc e87e 8ebb 9da6 53bd b03f babc
00000190: 004d 0fbe 6d8b a93c 1895 263e 96bd 1d3e
000001a0: bb4e debc 6f34 0cbd da23 b83c d311 2c3d
000001b0: 8921 45bd a2b7 083d e614 f7bb 22cc f63c
000001c0: 281f e23d d42a a3bc eee4 4a3b 0055 8cbd
000001d0: 72d7 653c 40c5 ca3b aff1 483d d8cb 143e
-0.09078442 0.1688625 -0.07119505 0.07346708 -0.021724496 0.055979244 -0.040997017 0.05918172
0.07426098 0.04330612 0.018850245 0.04618286 -0.0041357744 0.11393869 -0.016284617 -0.024761736
0.0042765085 -0.13107178 -0.0053767217 -0.019612726 0.028094823 0.068806104 0.21690238 -0.034462452
0.048246205 -0.03832446 0.095625326 0.025296587 0.0010479008 0.07912151 0.09874651 0.07704374
0.07954868 -0.011432013 -0.019693797 0.016210964 -0.05914754 -0.069984786 0.09170958 0.2068795
0.03254171 -0.000749923 -0.14662127 -0.045998413 0.09807558 -0.08237344 0.010309153 0.0104513215
0.021854362 0.050781026 0.0037592903 -0.08686495 -0.017536711 -0.042926684 -0.13359903 -0.05290621
-0.016793055 0.17498976 0.09895796 0.15199833 0.03398053 -0.014842023 -0.14286673 -0.07081416
-0.053439777 0.12546337 0.06492318 -0.055754006 0.10134902 -0.05809001 -0.029991046 0.017634563
0.029775698 0.06345406 0.15161768 -0.071611404 -0.02104005 0.029627291 -0.034965914 -0.043174326
0.12958391 -0.023626579 -0.042362276 -0.004709542 0.20759355 -0.04928291 0.07603568 -0.012495074
0.022169162 0.05777488 0.27963498 0.013623029 -0.0308055 0.049189016 -0.13325953 0.007816226
-0.02851674 -0.0043486245 -0.051672567 -0.022735447 -0.13994217 0.020696366 0.16267812 0.15404353
-0.027137151 -0.034229692 0.022478033 0.042009186 -0.048127685 0.03337825 -0.007540333 0.030126635
0.11041099 -0.019917883 0.0030959207 -0.0685215 0.014028417 0.006188065 0.049058612 0.14530885

fc2.weight f4 [84, 120]
00000000: 7d1d 93bd 7d68 713d 889b dbbd b5f9 0fbd
00000010: 1aff 08be 90ac 9d3d 75d5 69bd cc94 4d3d
00000020: 68c4 3d3d d162 9f3d b675 953c f74d 213e
00000030: 2f40 253d a7f2 b3bd 2033 0cbe b587 9cbb
00000040: 8f71 32be af51 90bd bb33 f9bc 53e4 c23d
00000050: ae29 223d 4c9e 9cbd 2420 a7bc 1c78 353c
00000060: 5f8e 7bbd e956 c8bd f804 473d 5390 9c3d
00000070: ee35 743c 0e41 19bd a118 153e 7197 28bd
00000080: 7bb7 5fbd c7a5 7ebc b7f8 fdbd 5ce0 553c
00000090: fe6d 9fbc 5c90 02bc 9970 78bc 0f1b 0bbd
000000a0: 87ca 853d 947d b93d 8582 09be 44b0 08bc
000000b0: 9d55 783d 09c8 05bc 4516 b6bc ab7b 823d
000000c0: 65fb 6abd 4f70 083e 2249 5c3d 563c b53d
000000d0: f675 663d 9bb8 cfbc e50d 9cbc b385 9dbd
000000e0: 5db5 e93d 8c30 4f3d 6396 9f3b 4ce4 6f3e
000000f0: 280b 76bd 9a7d a93d d183 c3bd 9770 d93c
00000100: ec7f c83d 9099 083d 3d92 bcbc b786 08be
00000110: 76f4 b1bd 2344 2ebd 83a8 543d a61a 4b3d
00000120: 9599 d43d 0752 b3bd 2934 7c3d 44ad 22be
00000130: a1ba 433d b124 7d3d ccc8 75bd f985 5cbd
00000140: 1b56 ce3d feaf efbd 9792 e9bc afe1 223c
00000150: 3fbb 6abd 5c3c 01be 81cf 0e3e eb73 33be
00000160: 1a27 493d 70f2 ef3c cdc2 353d 1546 153e
00000170: 4806 163d 9659 7e3d a64b 77bd 14b1 8fbc
00000180: f41a 203d 0011 d8bc f654 c43c 4f00 36be
00000190: 175e 943b dd12 633d e8fe 27bc f790 aa3d
000001a0: 8a11 1fbc 1263 8dbd b8ea 97bd 34ad a93c
000001b0: c7b3 ac3d 83d4 613d 030e f7bc 7938 7abe
000001c0: 6ef5 dbbb 89e8 593a fb69 413d 70c7 85bd
000001d0: 6f94 99bb f797 c03d c9cb dc3d 9e8d 023e
000001e0: 3920 14bc 76de c83d 2ea7 edbc f1eb 8bbd
000001f0: 557a 3cbc 51c4 c33c 1bec 743c 6f5d 2b3d
00000200: 874c 323c a95b 02bd 7c16 893c 6f7f ac3d
00000210: df24 dc3d 893f 88bb 7d2d 433d f8e2 4d3c
00000220: 24fa f4bd c09b 2cbd 7371 8f3c 8b67 d43b
00000230: 27a6 573d 7622 acbd f88a b8bc cc35 d23c
00000240: c419 903d c173 29bd 12d8 433d 0f3f 96bd
00000250: 72dd 37bd a35c d2bd c29a 83bd c99d c23c
00000260: 43d1 b13d 2091 893d fdbc 6ebd b8b9 7dbd
00000270: cd0b 8cbd 3e24 bcbc c61d 053d 0ae9 003e
00000280: c8b5 b83d 6f88 c9bd 2a1c c5bd 28da e1bd
00000290: 89e2 6f3d bc6d 03be 1f8f f73c efa7 94bc
000002a0: b5ae 01bd 896e 583d 7708 09bd 8420 bebc
000002b0: 03ca 74bd b746 cbbc 914d ae3b 812b 603d
000002c0: 773b cdbc 7b6c b23c 5bc0 723c 6d7e d23d
000002d0: 2e98 abbd 4254 a53d d88a 45bd efa6 dabd
000002e0: 6c3e b53c 59db e33d 804c 85bd 3a65 133d
000002f0: 2fc2 c6bd a82a 42bc 1f8c 7cbd 117e 9a3d
00000300: 3a84 7ebd bc85 99bc ec3d e7bb 9d0a 083d
00000310: 1d19 853d 1d60 2f3d 75f4 28bd d486 843d
00000320: 4c9d f33d 4590 70bc 5f22 c03d 300d 903c
00000330: 0dc8 f7bc 03d9 67bd 72ff b13d 43f6 fa3d
00000340: 095b a83d ff06 e33c d3db 4a3d f020 da3c
00000350: c6fc a8bd d408 b83d 1753 dbbb fc89 083e
00000360: a059 b1bd a4bc e8bd a02f c13c 1bac 433d
00000370: 59d6 473d 8646 22bd fa0b 663c 982a 35bd
00000380: 5c8c b23c db45 57bd 6cb3 83bd 462e d9bd
00000390: 2d96 8bbd 5c9f 483d f59f c73c 0aa3 23be
000003a0: 46cd 8dbc 919c 91bc 34bb 913c 526f d0bc
000003b0: 8d1d c13d 45aa b53c 0e85 963c f6ba 6c3d
000003c0: 7db1 d4bd 12cc 813c 417b 8dbd 3c34 bcbc
000003d0: 2241 1d3b 4eb6 bfbd 6d4f 9ebd d84a f23c
000003e0: 9ab7 81bc 727c afbd 22c7 ef3b ee79 9b3b
000003f0: d479 833d f5d5 abbd c36b 8bbd ef1b 4dbd
-0.07183359 0.05893754 -0.107230246 -0.03515025 -0.13378564 0.07698929 -0.057088334 0.050190732
0.046329886 0.077825196 0.018244606 0.15752397 0.040344413 -0.08786517 -0.13691378 -0.0047769197
-0.17426132 -0.0704683 -0.030420175 0.09516206 0.03959053 -0.0764738 -0.020401068 0.011076
-0.061415073 -0.09782202 0.048588723 0.07644715 0.014905436 -0.037415557 0.14560176 -0.04116005
-0.05461834 -0.015542454 -0.12400954 0.01305398 -0.019461628 -0.007968988 -0.015163564 -0.033961352
0.0653277 0.09057155 -0.13428695 -0.008342806 0.060628522 -0.008165368 -0.022227416 0.06371244
-0.057368655 0.13324092 0.053780682 0.08849399 0.05626484 -0.025356581 -0.019049594 -0.07691517
0.114115454 0.050583407 0.0048702224 0.23426932 -0.060069233 0.0827591 -0.09546626 0.026542945
0.09790024 0.033349574 -0.02301895 -0.1333264 -0.08689205 -0.04254545 0.051918518 0.04958596
0.10380856 -0.0875588 0.06157318 -0.15886408 0.047785405 0.06180257 -0.060005948 -0.053838704
0.10075017 -0.1170349 -0.028512282 0.0099415025 -0.057307478 -0.12620682 0.13946344 -0.17524688
0.049109556 0.029290408 0.04437523 0.14577515 0.036627084 0.062097155 -0.06037488 -0.017540492
0.039088205 -0.026375294 0.023966294 -0.17773555 0.004527818 0.05543791 -0.0102536455 0.08328431
-0.0097087715 -0.06903662 -0.07417816 0.020712472 0.08432727 0.055134308 -0.030158048 -0.24435605
-0.006712607 0.00083125435 0.04722021 -0.0653218 -0.004686884 0.09403985 0.107810564 0.12749335
-0.009040886 0.09808056 -0.029010382 -0.068321116 -0.011503776 0.023897322 0.01494887 0.041837152
0.010882503 -0.031825695 0.016734354 0.084227435 0.1074922 -0.0041579646 0.047650803 0.012566321
-0.11961773 -0.042140722 0.017510151 0.00648207 0.05264869 -0.084050104 -0.022527203 0.025660418
0.070361644 -0.041370157 0.047813483 -0.07336246 -0.04488892 -0.10271575 -0.06426002 0.023756878
0.08682492 0.067171335 -0.058285702 -0.061944693 -0.06838188 -0.0229665 0.032499097 0.12588897
0.09019047 -0.09840476 -0.096245125 -0.11027938 0.05856565 -0.12834829 0.030219613 -0.018146483
-0.031660754 0.05283979 -0.03345534 -0.023208864 -0.059762966 -0.024813993 0.005319305 0.05472899
-0.02505277 0.021780243 0.014816369 0.1027802 -0.08378635 0.080727115 -0.048228115 -0.10676371
0.022124492 0.111258216 -0.06508732 0.03598521 -0.09705006 -0.01185099 -0.061657067 0.075435765
-0.06213782 -0.018740527 -0.007056942 0.033213247 0.064989306 0.04281627 -0.041248757 0.06471029
0.118952364 -0.014682834 0.09381556 0.017584413 -0.030246759 -0.056603443 0.086913005 0.12254002
0.082204886 0.027713297 0.049526047 0.026627034 -0.08251338 0.08986059 -0.0066932547 0.13333887
-0.08659673 -0.11364105 0.02358228 0.047771554 0.048788402 -0.039618038 0.014040941 -0.044230074
0.021795444 -0.052556854 -0.064307064 -0.10604529 -0.06815753 0.048980102 0.024368266 -0.15980163
-0.017309796 -0.017774852 0.01778946 -0.025443707 0.094294645 0.022175917 0.018373992 0.057795487
-0.10385416 0.015844379 -0.069082744 -0.022974126 0.002399512 -0.09360944 -0.07729993 0.029576704
-0.015834618 -0.08568658 0.0073174397 0.0047447598 0.06419721 -0.083904184 -0.06807663 -0.050075468

fc2.bias f4 [84]
00000000: a8ac cb3e aac1 1cbd 888d ca3d dcb3 d0bd
00000010: 756f 7cbc 839f af3d 6384 a13d 8a93 c2bd
00000020: d86a 0ebe ffe3 253e 5b53 293e 727c 93bd
00000030: 10c5 f63d 3b9d b6bd 96a0 863d efd4 833b
00000040: 72e3 d9bd e747 693c c2de b63e 6c76 1c3d
00000050: 09c0 9cbd 7cfb a7bd 08a6 853e ae9c 4e3e
00000060: a81f e2bc a156 05bc 0cbc 5bbd 0b3b 463d
00000070: 13c2 0a3e f7e3 233d 649f db3c 0b62 42bd
00000080: 666a 923e 0ac2 4d3e aa71 773e 1a90 1e3d
00000090: 1596 d3ba ae78 4b3c 8451 423e cc81 143e
000000a0: 07c6 31bd 1a69 81bd ea18 933d 5bed a63c
000000b0: b896 2c3c 1c19 e3bd faa2 99bd bd17 81bd
000000c0: 969b 123e fae4 213e d22f e93d ce85 4a3e
000000d0: 3bab c93c e6ee 07bd c544 853d e156 bfbc
000000e0: eeae 87bd d5a5 c4bc 917e c93e eea2 633e
000000f0: ce4c cbbd 60cd 883d a20a 9d3d 377f f4bd
00000100: f06e 1ebd 4ec2 d23d 8be9 94bd e823 363e
00000110: 4d38 433d dd86 64bd f1c7 06bd a79f cd3d
00000120: a482 03be ceb0 9cbd 6dd0 2abc df56 923e
00000130: 3128 fc3c 6ea9 99bc 280e c6bc ca37 afbd
00000140: 6e35 653e 9a66 1e3e aca2 913a 8c66 8fbd
0.39780164 -0.03827063 0.09890276 -0.101905555 -0.015407433 0.08575346 0.07886579 -0.09500797
-0.13907945 0.16200255 0.16535704 -0.072014704 0.120493054 -0.08916708 0.06573598 0.0040231864
-0.10639085 0.014238334 0.35716826 0.038198873 -0.07653815 -0.08202264 0.26103234 0.20176956
-0.027602986 -0.00813833 -0.053646132 0.04839615 0.13550596 0.040012326 0.026809402 -0.047456782
0.285968 0.20093551 0.24164453 0.038711645 -0.001614275 0.012418909 0.18976408 0.14502639
-0.043401744 -0.06318875 0.07182486 0.020376852 0.010533981 -0.110887736 -0.075017884 -0.06303356
0.14317164 0.15810004 0.11386074 0.19777605 0.024617782 -0.033186816 0.06507257 -0.023356857
-0.06625162 -0.024004856 0.39354375 0.22230121 -0.09926759 0.06679797 0.07668044 -0.11938327
-0.038680017 0.10290967 -0.07271107 0.17787135 0.047661114 -0.05579268 -0.032905523 0.10040217
-0.12842804 -0.0765091 -0.010425669 0.28581902 0.030780884 -0.018757548 -0.024176672 -0.08555563
0.22383663 0.15468827 0.0011111102 -0.07001981

fc3.weight f4 [10, 84]
00000000: 5e5b a63e 1a92 ef3d dd13 bcbd d2c8 123e
00000010: 3df0 0abc 0124 ac3d 4590 88bb d659 2a3e
00000020: ca61 423e f551 67be f67a ecbc 5ec2 2abd
00000030: 397f cdbd 63f2 803c 763e 093c a347 0a3c
00000040: 5e4f 86bd f460 8a3d adaa a7bd ba54 e43d
00000050: 0fc9 3d3c d8ef 513d a1f0 a1be 8a37 eabd
00000060: 08d9 b53d 3bd8 9abd b42f 85bd 33f1 04be
00000070: 6028 8c3e ca68 5f3d 0c70 b13d 7a8f ae3c
00000080: 556c 953c a270 9bbd b73b 53be fc0d 683e
00000090: 539f 99bd c294 60bd 6f4e 60be b4d3 b63a
000000a0: 770d 9bbd ae82 8bbc 0580 0b3e 03af 033e
000000b0: 6140 6d3d 6468 1d3d 16e2 3d3e a202 033e
000000c0: 8ec5 2b3e 5f5e 773c 6871 a43c e77e 04be
000000d0: 7d19 3bbd 7f26 253e 670f ea3d abf3 2a3d
000000e0: c7c2 d5bb 2e43 f03d dab5 8bbe a0de 32bd
000000f0: 7864 c13d bb69 b5bd edad 7c3c 458d bdbc
00000100: ee1e 853d 4920 a7bd d6b0 c6bc 66eb 26be
00000110: 1a11 ff3d 2f2c 81bc 591a 3abe 7402 eebc
00000120: 7750 563d 59fe 153e f82b 213d 7226 933e
00000130: 97b2 5b3e 11fd cc3c b822 723d 5f00 443e
00000140: c86f 15bd 7e41 513e bd84 75be 6451 0dbc
00000150: 2936 33be b189 f4bd b13b 96bd 9556 d9bd
00000160: 71e8 a63d ab58 45be c8a1 abbd 5dec 4e3e
00000170: c185 603e 90d7 04bd 7720 3b3e cc3c 933d
00000180: 0229 433e 1c9e 963b 8015 3e3d 9750 a3bd
00000190: d9db 483d 9ae6 f1bd f45d bebe 35fb 03bd
000001a0: 4e2c c2bd e99f 623d cebe 133d 040e 8cbe
000001b0: 3b5d d43d d691 fa3c b1d8 cc3d ef10 ec3d
000001c0: bd3a 023e a93a e7bd 70cf 9dbd 83f3 b6bd
000001d0: 1b49 62be c5d5 47bd d5e2 91be 21a9 3bbe
000001e0: b8ea c23c e4b2 1ebe 6141 2bbe 6a37 b43d
000001f0: ee12 bf3e b8a6 3abd ae27 42bd 236e 22be
00000200: 54b9 66bd c42e be3d 928c 303d a584 9b3d
00000210: e4dd 023e fbf0 ffbd 229a c13c b6c3 0fbe
00000220: 1f91 c7bd c04b 9b3e 027d ac3e c8b5 c4bc
00000230: 7794 fd3d d46d 09be f3bd 91be fbe2 07be
00000240: 912e 1e3d 9901 7f3e efb9 3a3d 5503 183e
00000250: 063a 01bd 93da 87be 5279 933d 4a4d f93d
00000260: 0951 9f3e d86b 083d d56d 323e 3700 b5bd
00000270: b57c 323e 19e9 00be a48e 813d 1a12 423d
00000280: 91d8 02be a487 673c a1ae c33d 4f71 c23c
00000290: 1f66 aebd 4519 24bd 07a7 213e d28f 123d
000002a0: 4137 523e 7212 573e 6d57 4a3d 711a 02bc
000002b0: 1485 12bd edf9 8a3e d418 17be d599 62bd
000002c0: 171e f23c 6cb8 13be 88e5 2b3d 9643 60bd
000002d0: 2a7c 31be f789 24bd e1da b3bd e171 de3c
000002e0: 2fe3 dd3d 4b03 40bd 149d 743e 9fbe 103d
000002f0: b0aa a53d 4dcb a83c d122 c23d ae6e 943d
00000300: eb53 893d 4735 243d a7aa c83d a383 37bd
00000310: 7dfe fe3d 92bc 70be 7c04 e5bd 42bc 2b3a
00000320: 2811 a53e 831b 2d3e 7ba0 273e e912 4d3e
00000330: 122e 8c3c 2143 893d 7ca3 563d f4d0 68bd
00000340: 392a 42bd ff1a 053d 7c08 fdbd 5039 3dbc
00000350: 0f24 dc3d 0f48 483e adfa 34be d49c 2f3e
00000360: 503e 44be 836f 71bd 9f24 323c 99bc 52bd
00000370: 3a77 41bd 954a 3e3c 771c 57be edd8 143e
00000380: 6fdd be3c 24b9 833c 4a22 91bd f352 2b3e
00000390: 6b5e 0d3d 18c5 59bd 976f 393d 0018 25be
000003a0: 63f9 c7bd d82b 533e 454b ebbd 2f48 e03d
000003b0: 9242 09be 205b c03c db59 c4bd a8f2 dbbd
000003c0: a519 a73c 829e 45bd 6cea 483d 6def d83d
000003d0: 9e75 203d 8ce2 bb3c 19e9 1bbd 06c7 a03d
000003e0: b0e6 193d 5416 dbbd 6261 b7bd 0a3a af3d
000003f0: 7617 bbbd 5d8d ddbd 71c0 b0ba 9973 f7bc
0.32491583 0.116977885 -0.09183476 0.1433442 -0.008480129 0.08405305 -0.004167589 0.16635832
0.18982616 -0.22589858 -0.028867226 -0.04168927 -0.100340314 0.015740579 0.008376708 0.008439931
-0.06558107 0.067567736 -0.08186851 0.11148973 0.011583581 0.051254123 -0.31628898 -0.114363745
0.08879286 -0.07560774 -0.06503239 -0.12982635 0.27374554 0.054543294 0.08663949 0.02130865
0.018240133 -0.075898424 -0.20628248 0.22661585 -0.07501092 -0.054829367 -0.2190492 0.001394859
-0.075709276 -0.017030086 0.13623054 0.1285973 0.057922725 0.038429633 0.18543276 0.12793973
0.1677458 0.015098183 0.020073608 -0.12939034 -0.045678604 0.16127966 0.11428719 0.041736286
-0.0065234634 0.117315635 -0.2728718 -0.043669343 0.09442991 -0.08858057 0.0154223265 -0.023138652
0.0650004 -0.08160455 -0.024254244 -0.16300735 0.12454434 -0.015768139 -0.18174113 -0.029053904
0.05232283 0.14647807 0.039348572 0.2874027 0.21454845 0.025023015 0.05911514 0.19140767
-0.036483556 0.2043514 -0.23976417 -0.008625362 -0.17501129 -0.11940325 -0.07335604 -0.10612217
0.081498034 -0.19272105 -0.08380467 0.20207353 0.21926023 -0.03243214 0.18274103 0.071893305
0.19058612 0.004596485 0.046407223 -0.07974356 0.049037788 -0.11811562 -0.37181056 -0.03222199
-0.09481107 0.055328283 0.036070637 -0.27354443 0.10369345 0.030587118 0.10002268 0.11526667
0.1271772 -0.112904854 -0.07705581 -0.08933165 -0.220982 -0.04878785 -0.28493372 -0.18326236
0.023793563 -0.15497929 -0.16724159 0.08799632 0.3731913 -0.04556915 -0.047401123 -0.15862326
-0.056329086 0.092862636 0.04310281 0.07593659 0.12779957 -0.12497135 0.023633067 -0.14039502
-0.097444765 0.3033123 0.33689123 -0.024012461 0.12381833 -0.13420802 -0.28465232 -0.1327018
0.038618628 0.24902953 0.045587476 0.14845021 -0.031549476 -0.26533946 0.072008744 0.12172945
0.31116512 0.033305973 0.1742471 -0.088379316 0.17430384 -0.1258892 0.06326035 0.047380544
-0.12777926 0.01413146 0.09554792 0.02373567 -0.08515572 -0.04006316 0.15786372 0.03578169
0.2052889 0.2100313 0.049399782 -0.007940874 -0.035771444 0.27143803 -0.14755565 -0.055322487
0.029555364 -0.1442582 0.041966945 -0.054751955 -0.17332521 -0.040170636 -0.08781982 0.027153911
0.108343475 -0.04687814 0.23888046 0.03533804 0.08089197 0.020604754 0.09479297 0.07247673
0.06705459 0.04008987 0.09798174 -0.044803273 0.124508835 -0.23509434 -0.11182496 0.0006551185
0.32239652 0.16905026 0.16369812 0.20026745 0.017111812 0.06702257 0.052402005 -0.0568399
-0.047403548 0.03249645 -0.12355134 -0.011549309 0.10749065 0.19558738 -0.1767375 0.17149669
-0.19164395 -0.058944236 0.010872989 -0.051449392 -0.047232844 0.011614461 -0.21006952 0.14535876
0.023298947 0.016079493 -0.07086618 0.16730861 0.034513872 -0.05316648 0.045272436 -0.16122437
-0.097643636 0.20622194 -0.11488966 0.10951268 -0.13404301 0.023480952 -0.09587451 -0.107396424
0.02039797 -0.048246868 0.049051687 0.10592542 0.03917467 0.022935174 -0.038064096 0.07850461
0.037573516 -0.10697618 -0.08954121 0.08555992 -0.09135334 -0.108179785 -0.0013485086 -0.030206488

fc3.bias f4 [10]
00000000: 183d 42be a9d1 05bf a2e5 4a3d 7d88 723e
00000010: dcf2 fd3e 4eaa 67bd 8c36 203e 3cb6 8cbe
00000020: 2f80 003f 9337 a8be
-0.18968618 -0.5227304 0.0495354 0.23684879 0.4959935 -0.0565589 0.15645808 -0.27482784
0.5019559 -0.328549
