youngjin/models/dkm_de.pth (torch, 140559 bytes, 7 tensors)

decoder.0.weight f4 [1024, 10]
0.023333913 0.16812693 -0.19915338 0.31271136 -0.071448565 -0.24690165 0.20689628 -0.28399742
0.062497914 -0.13486083 0.0012890256 0.20274602 0.21699469 0.56223166 -0.3889323 0.051176265
0.2862184 -0.7568974 -0.002200283 0.3560732 -0.5708011 -0.26481432 0.049415592 -0.2931593
0.4617824 -0.28739905 -0.081448875 -0.0070528393 -0.18035367 0.42500654 -0.015984176 -0.05163504
0.22099029 0.0064367037 0.12920094 -0.1888421 0.20524737 0.24200231 -0.28356 0.15752946
0.6921872 -0.20990992 -0.6830721 -0.14794362 -0.20557219 0.28636485 0.23797886 -0.0666293
0.24343637 0.09218121 0.13497049 -0.1931813 -0.32152423 0.46553993 0.25506353 -0.21982822
0.20766786 -0.06789971 -0.28037396 -0.12120351 -0.06940796 -0.15567684 -0.7414052 0.41548786
0.35317257 -0.30084997 -0.022877559 0.19605382 0.0123087885 -0.16235143 0.24990603 0.21496187
-0.17208819 -0.24954294 -0.33790025 0.20866202 -0.13871028 -0.1818284 -0.2003931 0.03677547
-0.17148313 -0.06335959 -0.1947936 0.080983885 -0.28205463 0.20380281 -0.12826958 0.031615045
-0.021418618 -0.30194497 -0.25310877 0.24884127 -0.13315597 0.06554337 -0.49992257 0.008416741
-0.24168587 0.025841469 0.048947405 0.27851868 -0.36171043 0.254477 -0.14347823 0.1033223
0.5053081 -0.23093425 -0.23070078 -0.07610748 -0.075598575 -0.43419173 -0.11072234 0.00904093
-0.041820396 -0.30975464 -0.0959791 -0.17789413 -0.035250578 -0.04211728 0.30712134 -0.11749744
0.9071817 0.013678088 -0.77975667 -0.6775707 0.263132 -0.1388522 0.2044331 -0.9468063
-0.007181662 0.13406941 0.05677169 0.23000455 -0.1224385 0.18335736 -0.25922635 0.16850752
-0.11913206 -0.97052705 0.14360763 1.0502434 -0.27266225 -0.21305458 0.2060308 -0.5286922
-0.08095732 -0.27920997 -0.11708351 -0.13765666 -0.22015218 -0.15843512 -0.19253775 0.13500178
-0.983885 0.26544183 -1.0183021 0.062303208 0.12533571 -0.4329333 0.035115577 0.3655705
0.2205879 -0.15308891 -0.16532455 0.44853374 -0.30416235 -0.30689132 0.24698709 0.02312021
-0.0058107534 -0.17798169 -0.4091664 -0.21559542 0.08565268 -0.45956737 -0.31902218 -0.21896887
-0.17153774 0.20680724 -0.25118327 0.38609508 0.2386422 -0.028294802 -0.5874417 -0.3043507
0.369343 -0.048241258 0.12930825 0.050563052 -0.09703969 0.21291646 -0.25210306 0.030985208
-0.5518799 -0.6990221 0.82007205 0.11321517 0.17415035 0.98480326 0.16166331 0.60614705
-0.3938455 0.058047883 -0.13839866 0.07592899 0.1835365 -0.15218231 0.10434687 -0.5729616
-0.039215196 0.14583208 0.051293347 -0.09403944 -1.1241628 -0.6697006 0.062102035 0.13313536
-0.3036238 0.4637703 0.304276 0.0522642 -0.35882547 0.028047713 -0.04025995 0.10236892
0.30059886 -0.0739349 -0.08635866 -0.014226882 0.30704924 0.399886 -0.15344305 -0.19619967
-0.49693844 0.34109035 -0.2704524 0.13799009 0.016483964 0.44759315 0.27884465 -0.36933658
0.044729155 -0.19018635 -0.19472504 -0.019938033 0.14944322 0.047876377 0.3148431 -0.048980482
0.21643282 0.14198184 -0.1487783 -0.17466676 0.36578053 0.2845331 0.06195287 0.27413613
00000000: c326 bf3c 7729 2c3e ddee 4bbe b41b a03e
00000010: a053 92bd c9d3 7cbe 9edc 533e 1c68 91be
00000020: d0fd 7f3d f518 0abe 86f4 a83a a79c 4f3e
00000030: db33 5e3e 6aee 0f3f 2222 c7be 349e 513d
00000040: 388b 923e 07c4 41bf a032 10bb 3a4f b63e
00000050: 0520 12bf be95 87be 0168 4a3d fa18 96be
00000060: be6e ec3e f825 93be abce a6bd 811b e7bb
00000070: a2ae 38be 759a d93e 3ff1 82bc 447f 53bd
00000080: 474b 623e fcea d23b 404d 043e d35f 41be
00000090: 5e2c 523e 74cf 773e c72e 91be 674f 213e
000000a0: 2e33 313f a0f2 56be d0dd 2ebf 887e 17be
000000b0: 8481 52be 6a9e 923e bbb0 733e f174 88bd
000000c0: 6247 793e 81c9 bc3d b435 0a3e 52d1 45be
000000d0: d39e a4be 405b ee3e b097 823e a61a 61be
000000e0: e2a6 543e 010f 8bbd 2d8d 8fbe 8c39 f8bd
000000f0: c325 8ebd c069 1fbe bbcc 3dbf d3ba d43e
00000100: 09d3 b43e 0209 9abe b869 bbbc 55c2 483e
00000110: cdaa 493c 743f 26be 5ee7 7f3e f71e 5c3e
00000120: e337 30be 2f88 7fbe 4301 adbe 7fab 553e
00000130: 110a 0ebe 3931 3abe d933 4dbe e0a1 163d
00000140: 4699 2fbe acc2 81bd f977 47be e1da a53d
00000150: 7769 90be afb1 503e 1a59 03be c77e 013d
00000160: 1976 afbc 8898 9abe 7997 81be 3fd0 7e3e
00000170: 0a5a 08be 9a3b 863d daf5 ffbe 5fe6 093c
00000180: 807c 77be 7db1 d33c 137d 483d 009a 8e3e
00000190: 1c32 b9be cf4a 823e f5eb 12be a49a d33d
000001a0: df5b 013f 077a 6cbe d33c 6cbe 3dde 9bbd
000001b0: 6dd3 9abd 614e debe 65c2 e2bd 6920 143c
000001c0: dd4b 2bbd 2998 9ebe b190 c4bd e129 36be
000001d0: e962 10bd 2b83 2cbd 023f 9d3e 7fa2 f0bd
000001e0: 0f3d 683f 0f1a 603c 229e 47bf 4675 2dbf
000001f0: 3db9 863e 452f 0ebe e956 513e e661 72bf
00000200: 2654 ebbb 7e49 093e 6e89 683d 5086 6b3e
00000210: 09c1 fabd 08c2 3b3e 51b9 84be 3c8d 2c3e
00000220: 82fb f3bd 7674 78bf e10d 133e 606e 863f
00000230: 639a 8bbe fb2a 5abe bdf9 523e 5f58 07bf
00000240: f4cc a5bd 9cf4 8ebe 7bc9 efbd def5 0cbe
00000250: 936f 61be d13c 22be 9e28 45be e83d 0a3e
00000260: e3df 7bbf fee7 873e b957 82bf a631 7f3d
00000270: 0158 003e 6fa9 ddbe 5ad5 0f3d 0e2c bb3e
00000280: cbe1 613e 57c3 1cbe d74a 29be 37a6 e53e
00000290: 2bbb 9bbe dc20 9dbe 2fea 7c3e 9866 bd3c
000002a0: 2268 bebb d540 36be 427e d1be 0cc5 5cbe
000002b0: ac6a af3d 6a4c ebbe e056 a3be 6039 60be
000002c0: 97a7 2fbe 47c5 533e 189b 80be 41ae c53e
000002d0: 9f5e 743e 80ca e7bc 9462 16bf dbd3 9bbe
000002e0: 871a bd3e a098 45bd 6269 043e 341b 4f3d
000002f0: bfbc c6bd c606 5a3e a713 81be b1d4 fd3c
00000300: 0048 0dbf 1df3 32bf 3ef0 513f 5bdd e73d
00000310: 7854 323e 111c 7c3f 118b 253e 742c 1b3f
00000320: 1ea6 c9be 9ec3 6d3d 61b8 0dbe a980 9b3d
00000330: fef0 3b3e aed5 1bbe d0b3 d53d 9dad 12bf
00000340: 1da0 20bd 0155 153e f918 523d c097 c0bd
00000350: 91e4 8fbf 8071 2bbf b45e 7e3d a354 083e
00000360: 9474 9bbe 4d73 ed3e 10ca 9b3e fc12 563d
00000370: f9b7 b7be 51c4 e53c 9ee7 24bd cca6 d13d
00000380: 18e8 993e 2e6b 97bd cfdc b0bd de17 69bc
00000390: 8f35 9d3e dcbd cc3e 2d20 1dbe 91e8 48be
000003a0: b76e febe 65a3 ae3e bd78 8abe 464d 0d3e
000003b0: 6109 873c ee2a e53e bac4 8e3e af19 bdbe
000003c0: eb35 373d 36c0 42be 0066 47be 1655 a3bc
000003d0: a507 193e 051a 443d 1d33 a13e c29f 48bd
000003e0: 91a0 5d3e b063 113e 5759 18be d8db 32be
000003f0: 9647 bb3e 53ae 913e 4bc2 7d3d 925b 8c3e

decoder.0.bias f4 [1024]
0.6109851 0.09318818 0.0062080952 -0.582794 0.0068879602 -0.26628304 -0.3557137 0.6849418
-0.31247663 0.5349183 0.76451135 0.14913121 0.21351229 -0.12206569 0.60735375 1.3993313
0.05260447 0.6454067 0.03990359 -1.7473134 0.5181099 0.29988736 -0.18856043 0.89342344
0.23654072 0.18228622 -0.50213873 0.16210131 0.14339316 -0.50063765 -0.30758706 -0.05312521
-0.62107134 -0.12105354 0.5356476 -0.49222133 0.10487344 0.2594223 0.5764755 0.6755105
0.4597014 0.7327676 0.21020596 0.09748975 -0.037922155 -0.14718136 -0.32159114 0.13825458
-0.10558353 -0.3077176 -0.10119511 -0.75222903 -0.089999266 -0.06529898 0.024656117 -0.34647954
0.8281694 -0.98401916 0.8016576 -0.012400971 -0.24031462 -0.8169499 -0.3461911 -1.8078175
-0.14531243 -0.15299028 0.523946 0.0977889 -0.92880774 -1.3538463 -0.3632055 -0.353417
-0.46369475 0.16350882 -0.38629985 -0.02341022 0.38546285 0.39029497 1.1090512 0.60454273
0.11784332 -0.38576502 1.4510517 0.8909389 0.025351485 -0.11568591 -0.75934184 -1.052359
0.16693808 0.27868646 -0.015540907 0.18581337 -0.4871894 -0.6098745 0.6339372 -0.28998572
0.69456315 -0.10911896 0.18567596 0.8831279 -0.06983356 0.79361016 -0.13128418 0.15011455
0.60122603 0.6029832 0.81737083 0.6971962 0.6399049 0.65288365 -0.04459365 -0.2559395
0.8320133 -0.16236147 -0.6257116 0.28537807 -0.17849445 0.6849032 -0.16345932 0.5006207
-0.23903567 0.5786747 -0.19232838 -0.23721677 0.7099935 0.8547551 0.84928644 0.71873003
-0.09308109 -0.19549051 -0.9593163 -0.55614316 -0.16371292 0.23201111 -0.16147631 0.13754757
-0.17070942 1.1262885 0.1294799 -0.25296283 1.0600442 0.38311207 -0.33952937 0.88193536
0.02924055 -0.099634156 0.62185645 0.0010036149 -0.15231432 -0.0030278838 0.46061388 -0.948334
0.1075286 -1.0157931 0.95006686 0.69917375 0.6768511 -0.5148639 0.39912316 0.14093493
-0.064787865 -0.27065665 -0.34169912 0.86797863 0.07726384 0.3899915 1.167692 0.6095177
0.22085482 -1.249759 -0.22960345 0.5185094 0.6629425 0.9695943 0.60885876 -0.3683949
-0.053999677 0.032659043 -0.18493599 -0.22909397 -0.6544779 0.7380062 -0.14667407 0.46917465
0.062121384 -0.4130299 0.18895464 0.3657975 -0.5211394 0.9644938 0.40777415 0.36219043
0.9733461 0.9924705 -0.08097379 0.74550825 0.17187037 0.573229 0.9564809 0.0061002304
0.594236 -1.2518907 -0.1445883 0.47108412 -0.6616788 0.40686396 -1.563425 0.039895006
0.34912452 -0.2094064 -0.43677446 0.57183343 -0.24757867 1.4950064 0.13282782 -0.36483014
1.2799544 -0.35811332 -0.7820331 -0.2698733 0.12774651 0.7485441 0.46450332 0.38085714
0.48098996 -0.81978947 -0.29297766 -0.36187947 0.013726705 0.107445635 1.1429865 -0.08008802
0.6551314 0.9008365 -0.28337786 0.85934037 0.22226432 0.52705693 -0.25678542 -0.6503858
-0.1795239 0.22938213 0.993191 -0.91525275 0.7269418 0.25382397 0.4555515 0.55348504
0.048461795 -0.13649045 0.1210856 -0.41308635 0.066906944 0.4653592 -0.3914532 -1.9851444
00000000: 8569 1c3f 72d9 be3d 476d cb3b fd31 15bf
00000010: 66b4 e13b 4056 88be 1b20 b6be 5958 2f3f
00000020: f0fc 9fbe 68f0 083f 04b7 433f dab5 183e
00000030: f7a2 5a3e 94fd f9bd 897b 1b3f 4a1d b33f
00000040: c977 573d 6039 253f f271 233d f7a7 dfbf
00000050: daa2 043f d68a 993e fc15 41be 66b7 643f
00000060: bb37 723e 3da9 3a3e 2a8c 00bf e3fd 253e
00000070: a8d5 123e ca29 00bf 0d7c 9dbe d299 59bd
00000080: 88fe 1ebf ebea f7bd 3320 093f 6f04 fcbe
00000090: e3c7 d63d 00d3 843e e693 133f 42ee 2c3f
000000a0: fb5d eb3e a896 3b3f 3b40 573e b5a8 c73d
000000b0: 4354 1bbd b6b6 16be 98a7 a4be 9c92 0d3e
000000c0: 2e3c d8bd 298d 9dbe 623f cfbd 1592 40bf
000000d0: 8951 b8bd 79bb 85bd a0fb c93c c465 b1be
000000e0: e902 543f aee8 7bbf 6f39 4d3f 712d 4bbc
000000f0: 0915 76be a123 51bf f63f b1be 9066 e7bf
00000100: c8cc 14be 7ca9 1cbe 5321 063f 8c45 c83d
00000110: 58c6 6dbf d64a adbf 12f6 b9be 13f3 b4be
00000120: 6669 edbe db6e 273e 18c9 c5be cac6 bfbc
00000130: 635b c53e bed4 c73e 64f5 8d3f 50c3 1a3f
00000140: d757 f13d fe82 c5be 10bc b93f 9214 643f
00000150: ebad cf3c bcec ecbd 3a64 42bf b3b3 86bf
00000160: d1f1 2a3e feaf 8e3e 4a9f 7ebc dc45 3e3e
00000170: e470 f9be bc20 1cbf b549 223f 0279 94be
00000180: e4ce 313f c379 dfbd d721 3e3e ac14 623f
00000190: e604 8fbd 092a 4b3f 5c6f 06be a1b7 193e
000001a0: f3e9 193f 1b5d 1a3f 373f 513f 737b 323f
000001b0: cfd0 233f 6223 273f d5a7 36bd 810a 83be
000001c0: d3fe 543f 1642 26be a32e 20bf 131d 923e
000001d0: 40c7 36be d155 2f3f e161 27be ae28 003f
000001e0: c4c5 74be 0624 143f bbf1 44be f4e8 72be
000001f0: 22c2 353f 3bd1 5a3f d66a 593f b1fe 373f
00000200: 4ca1 bebd aa2e 48be c195 75bf 665f 0ebf
00000210: 5ca4 27be 5294 6d3e 0c5a 25be 45d9 0c3e
00000220: 73ce 2ebe 392a 903f 6196 043e 5884 81be
00000230: 87af 873f 4427 c43e cbd6 adbe 84c6 613f
00000240: e189 ef3c fe0c ccbd fc31 1f3f ba8b 833a
00000250: 49f8 1bbe 766f 46bb 95d5 eb3e 04c6 72bf
00000260: f437 dc3d 8205 82bf 9537 733f 0dfd 323f
00000270: 1d46 2d3f 1fce 03bf df59 cc3e 3f51 103e
00000280: 80af 84bd 8293 8abe 30f3 aebe d933 5e3f
00000290: 813c 9e3d f7ac c73e ee76 953f 5a09 1c3f
000002a0: c427 623e 1af8 9fbf 2b1d 6bbe 08bd 043f
000002b0: 9ab6 293f 5537 783f 2bde 1b3f 429e bcbe
000002c0: c42e 5dbd 7dc5 053d dc5f 3dbe 9c97 6abe
000002d0: dd8b 27bf f9ed 3c3f ba31 16be a937 f03e
000002e0: fe72 7e3d a878 d3be 537d 413e cf49 bb3e
000002f0: 6469 05bf 11e9 763f c6c7 d03e 0671 b93e
00000300: 362d 793f 8c12 7e3f 96d5 a5bd a1d9 3e3f
00000310: c9fe 2f3e 23bf 123f efdb 743f 71e4 c73b
00000320: da1f 183f f43d a0bf f50e 14be f031 f13e
00000330: c863 29bf 7950 d03e 4f1e c8bf f268 233d
00000340: 73c0 b23e a26e 56be e7a0 dfbe ad63 123f
00000350: 4385 7dbe 5f5c bf3f 0404 083e 04cb babe
00000360: 8cd5 a33f a15a b7be 5233 48bf d52c 8abe
00000370: fbcf 023e 96a0 3f3f 61d3 ed3e b5ff c23e
00000380: 5144 f63e b9dd 51bf 2b01 96be 4448 b9be
00000390: f9e5 603c 750c dc3d 624d 923f 3005 a4bd
000003a0: b1b6 273f 399d 663f e716 91be bbfd 5b3f
000003b0: 4299 633e 34ed 063f 6179 83be af7f 26bf
000003c0: 1dd5 37be 26e3 6a3e c441 7e3f 014e 6abf
000003d0: dc18 3a3f 37f5 813e 0c3e e93e 32b1 0d3f
000003e0: e07f 463d 27c4 0bbe bafb f73d 0e80 d3be
000003f0: 8206 893d 9043 ee3e 8e6c c8be 3619 febf

decoder.3.weight f4 [64, 32, 3, 3]
-0.5897681 -0.15732464 0.40369534 0.2797515 0.018198699 -0.106603034 -0.47870934 0.15694049
-0.272958 -1.6512734 -0.076064296 -0.9257708 0.96289414 -0.0685835 -0.056837942 -0.07741488
-0.24000607 -0.22082882 0.048840053 0.41660354 0.13024805 -0.24016683 -0.5632202 0.5659034
-1.6231508 0.15994538 0.005939047 -0.7793785 -0.09781172 0.25884092 -0.28967583 -0.014093592
-0.2923038 -0.34955573 0.15445535 0.10165344 0.32826552 0.34023622 0.07470783 0.042373586
-0.18838805 0.24046485 -0.16659728 -0.2865121 0.43873647 0.1454131 -0.08896194 0.25222206
0.17109342 0.0048624296 -1.098937 0.23317492 -0.34637636 0.00044493738 0.13393283 0.24992603
0.20587394 0.15257792 0.13849452 0.20077887 -0.015560301 0.32030383 0.43701944 0.16159418
0.12949567 0.5981433 0.051952228 -0.002061031 -0.27542773 0.103733964 -0.13374782 -0.31883737
-0.27979508 0.46084085 0.13581027 -0.50227255 0.22634837 0.1390057 -0.023117453 -0.09465667
0.015611673 0.27106887 0.33100852 -0.25494993 -0.07803661 0.17192392 -0.120403886 0.041561987
-0.031386588 0.2712651 0.06890888 -2.018788 0.34364703 0.24209377 0.20847529 -1.2869036
0.49673715 -0.20325267 0.24917378 0.3176345 0.1623492 -0.51246536 0.2944174 0.19685099
-0.10241806 0.10293945 0.3937657 -0.112441406 0.7886604 0.63272786 -0.04799725 -0.86738527
-0.035504516 -0.36373106 0.54472774 -1.1431719 -0.35648498 -1.2448875 0.41984373 -0.0091232825
-0.2683158 -0.023680162 -0.08958238 0.26894125 -0.29068723 -0.31903726 0.39469138 0.35197258
-0.5011706 0.00033527767 -0.06895854 -0.13469371 0.1088814 -0.105162345 -0.17071056 0.15355958
0.36328337 -0.6209214 0.11421923 -0.43763492 -0.18661548 0.18751892 -0.30729422 0.19308518
-0.006160212 0.8499978 -0.2966367 0.24357879 -0.18268512 -2.2838733 -0.15070388 -0.5889645
0.08987453 0.32652873 0.5775018 0.20647462 0.008371537 -0.32763577 0.16897365 -0.25521538
-0.34597832 -0.1724317 -0.19461204 0.105827674 0.36980623 -0.13662358 -0.6057604 -0.069605075
0.027515223 0.24685504 -0.22578059 0.25593767 -0.30665362 -0.22816457 -0.6111699 0.045893412
-0.39400885 0.26801112 -0.5993109 -0.6183486 0.26614815 0.14815624 0.04742386 0.31913653
0.72719836 -0.30440363 0.09248062 -0.33860207 -0.6329903 0.45294085 0.46942782 0.13081136
-0.43349522 -0.02736714 0.08144857 0.41407135 -0.10021841 0.21391964 -0.04149412 -0.115141116
-1.1879631 -0.09067272 0.25234944 0.2815869 0.250894 -0.3270419 -0.23849557 -0.8258221
0.1164978 -0.048248563 -0.03049005 -0.4592142 0.21198587 0.013132138 -0.13148428 0.0045417417
0.048281685 -0.180163 0.25348154 -0.14771052 0.13257635 0.10271615 -0.11768203 0.27924865
0.46416703 -0.5433399 0.6410922 0.026070096 -0.0039173397 -0.6427752 0.03053971 -0.90227956
0.29490104 0.26361102 0.0065288213 -0.12516277 0.1725852 -0.53604245 -0.018560668 -0.91897947
-0.13295062 -0.3785209 -0.3740411 -0.035814483 0.046148524 0.24706611 -0.06474387 -1.2770886
0.035855107 -0.042303834 -0.05422602 0.016445357 -1.1041901 -0.071485676 -0.83494586 -0.54571944
00000000: 0bfb 16bf b619 21be 28b1 ce3e 973b 8f3e
00000010: 7015 953c b152 dabd 6419 f5be 02b5 203e
00000020: 27c1 8bbe ed5c d3bf 99c7 9bbd 51ff 6cbf
00000030: 3b80 763f 8275 8cbd e7ce 68bd b18b 9ebd
00000040: 27c4 75be f320 62be 820c 483d 0f4d d53e
00000050: bf5f 053e 4bee 75be 332f 10bf 0cdf 103f
00000060: 68c3 cfbf b9c8 233e 569c c23b 5985 47bf
00000070: 8351 c8bd cc86 843e 6450 94be cfe8 66bc
00000080: d8a8 95be f8f8 b2be 8b29 1e3e ae2f d03d
00000090: 6b12 a83e 7133 ae3e 6b00 993d ed8f 2d3d
000000a0: cce8 40be 6b3c 763e 7a98 2abe b7b1 92be
000000b0: 11a2 e03e 2ce7 143e ad31 b6bd 4023 813e
000000c0: 1d33 2f3e 0455 9f3b f8a9 8cbf 68c5 6e3e
000000d0: 3e58 b1be 7c46 e939 b025 093e 9cec 7f3e
000000e0: 9ed0 523e 633d 1c3e 82d1 0d3e fa98 4d3e
000000f0: a2f0 7ebc ddfe a33e 03c1 df3e f278 253e
00000100: 839a 043e eb1f 193f dccb 543d 5d12 07bb
00000110: dd04 8dbe 7972 d43d 30f5 08be a73e a3be
00000120: 4d41 8fbe 55f3 eb3e d911 0b3e ef94 00bf
00000130: dec7 673e 8357 0e3e d060 bdbc 5bdb c1bd
00000140: 1ac8 7f3c 8ac9 8a3e f379 a93e cc88 82be
00000150: a8d1 9fbd d30c 303e 5096 f6bd e73c 2a3d
00000160: 398f 00bd 42e3 8a3e 1920 8d3d d333 01c0
00000170: 81f2 af3e 6ee7 773e 8c7a 553e 42b9 a4bf
00000180: 5554 fe3e 7821 50be 6927 7f3e fda0 a23e
00000190: de3e 263e ee30 03bf e1bd 963e 4e93 493e
000001a0: 8fc0 d1bd ebd1 d23d a89b c93e ae47 e6bd
000001b0: a6e5 493f 74fa 213f c498 44bd f60c 5ebf
000001c0: 2f6d 11bd f53a babe 4773 0b3f 7553 92bf
000001d0: 3385 b6be 7958 9fbf c2f5 d63e d279 15bc
000001e0: b060 89be e6fc c1bc f876 b7bd abb2 893e
000001f0: f5d4 94be da58 a3be fd14 ca3e c035 b43e
00000200: b74c 00bf 35c8 af39 233a 8dbd 26ed 09be
00000210: 36fd de3d 5b5f d7bd c0ce 2ebe b93e 1d3e
00000220: 4700 ba3e b4f4 1ebf c6eb e93d af11 e0be
00000230: 2118 3fbe f604 403e ab55 9dbe 1fb8 453e
00000240: 9bdb c9bb 7599 593f c4e0 97be b86c 793e
00000250: cf11 3bbe fb2a 12c0 1e52 1abe 61c6 16bf
00000260: 2310 b83d c62e a73e 28d7 133f 156e 533e
00000270: c528 093c e0bf a7be 6e07 2d3e 97ab 82be
00000280: 1224 b1be f091 30be 6148 47be 2ebc d83d
00000290: 3e57 bd3e 0de7 0bbe 1d13 1bbf 1b8d 8ebd
000002a0: 9b67 e13c 91c7 7c3e 0733 67be 430a 833e
000002b0: b401 9dbe f9a3 69be a175 1cbf bbfa 3b3d
000002c0: 87bb c9be c138 893e 706c 19bf 184c 1ebf
000002d0: 9244 883e 45b6 173e 853f 423d dd65 a33e
000002e0: ac29 3a3f cbda 9bbe 7b66 bd3d 405d adbe
000002f0: a70b 22bf dde7 e73e d858 f03e 6af3 053e
00000300: 16f3 ddbe 0d31 e0bc 82ce a63d 2901 d43e
00000310: 4f3f cdbd c00d 5b3e bdf5 29bd 1bcf ebbd
00000320: 2d0f 98bf 9eb2 b9bd f233 813e 282c 903e
00000330: 2e75 803e 0972 a7be 2f38 74be 1469 53bf
00000340: 6696 ee3d 49a0 45bd 45c6 f9bc 201e ebbe
00000350: d312 593e 2e28 573c d1a3 06be e4d2 943b
00000360: 04c3 453d a67c 38be 55c8 813e 6d41 17be
00000370: 18c2 073e d85c d23d 4703 f1bd aef9 8e3e
00000380: 4da7 ed3e 5318 0bbf 9e1e 243f f490 d53c
00000390: 075d 80bb ea8c 24bf 6a2e fa3c cbfb 66bf
000003a0: 45fd 963e 06f8 863e b9ef d53b ab2a 00be
000003b0: 2dba 303e 143a 09bf 8b0c 98bc 3d42 6bbf
000003c0: 3524 08be 7ecd c1be 5182 bfbe 35b2 12bd
000003d0: 3c06 3d3d e6fe 7c3e 6f98 84bd a477 a3bf
000003e0: cedc 123d c946 2dbd 1a1c 5ebd 6ab8 863c
000003f0: 1a56 8dbf 1567 92bd 03bf 55bf 45b4 0bbf

decoder.3.bias f4 [32]
0.23964424 -0.14607602 -0.07181905 -0.29445934 0.4033383 0.13889928 0.7622832 -0.06263329
0.24180824 0.05484225 0.36058435 -0.034672085 -0.11012695 -0.0061220955 0.41205782 0.08541811
0.15002228 0.311771 0.29105616 0.10091825 -0.08247041 0.5607171 0.18680881 0.20798114
0.52735835 0.10174861 0.18469393 0.0029601303 0.024259638 -0.0010886426 0.4042183 0.08221088
00000000: 4d65 753e f494 15be de15 93bd 60c3 96be
00000010: 5c82 ce3e 9d3b 0e3e fe24 433f e245 80bd
00000020: 949c 773e 44a2 603d 839e b83e 5104 0ebd
00000030: 3d8a e1bd dc9b c8bb 3ef9 d23e b1ef ae3d
00000040: 719f 193e 73a0 9f3e 5005 953e 3aae ce3d
00000050: 3fe6 a8bd 288b 0f3f cf4a 3f3e 02f9 543e
00000060: f500 073f 9361 d03d 6820 3d3e bffe 413b
00000070: 26bc c63c c9b0 8eba b3f5 ce3e 2e5e a83d

decoder.5.weight f4 [32, 16, 3, 3]
0.18115936 -0.63633525 -0.297352 0.7890375 -0.37792 -0.021527788 -0.07261707 -0.17594734
-0.1619078 -0.18331948 -0.34409043 -0.30465308 -1.0826813 0.14939384 -0.21617845 -0.38069156
0.079468586 0.479521 0.72707313 0.14292406 -0.1821547 0.57439333 0.28725135 -0.03390051
-0.41243187 0.22186612 0.07672173 1.0781038 -0.29553455 0.90764487 -0.2109288 0.8966033
0.087423876 0.44330847 0.38926265 0.30113393 -0.0391927 -0.026805224 -0.39177743 -0.43979222
-0.4684717 0.056755587 -0.012611952 0.2096241 -0.0023657135 -0.261132 -0.12003263 -0.027140148
-0.28235456 0.046383522 -0.21271624 -0.07355703 -0.2103164 -0.14070003 0.34092662 -0.0020298797
0.4896245 -0.2526605 -0.647051 0.062402662 0.030858709 0.37037313 0.1322021 -0.1834041
0.25834367 0.5989884 -0.80794275 -0.5032492 0.21807459 0.1757804 0.3213554 -0.2978272
0.56025 -0.08919103 -0.21388695 0.24906696 0.6596846 0.032708503 0.0334495 0.4637271
-0.3542716 -0.0533025 -0.28340647 -0.09311631 -0.25714862 -0.88641053 -0.019085724 -0.0012489822
0.3904744 -0.013734987 -0.11353113 -0.2712972 -0.1726616 -0.26457438 0.048992272 -0.09309542
0.7847783 0.7741522 0.24587938 -0.38920212 0.079354696 0.28054363 -0.1363459 0.45467746
0.30031765 -0.49495697 -0.16863447 -0.14684333 -0.20807138 0.052447964 -0.6679658 0.64284563
-0.2644461 -0.07072219 0.058556896 0.40888053 0.014898157 0.11400236 -0.109398015 0.24290563
0.06831181 0.45360905 0.17849146 0.14210911 0.29819822 -0.0043894486 0.36251402 0.018040191
-0.30636126 0.67372406 1.2648339 0.4552012 -0.31254935 -0.5506736 -0.32671538 0.016118683
1.0871646 0.338122 0.30257225 0.93299794 0.4260742 -0.39546746 0.14421155 0.30821437
-0.10889073 -0.008058805 0.30960664 -0.6758279 -0.44056284 -0.62488 0.6560766 -0.35597706
0.0045276983 2.0657165 0.68724966 0.49317548 4.1564918 0.22307536 0.26191983 0.53266877
0.34555224 -0.28592315 0.01058177 0.08422596 0.2474698 1.33477 0.6423847 -0.7621256
1.0322139 -0.07821066 -0.23466179 0.037153132 -0.25539494 -0.2810827 -1.4862657 -0.12682849
-0.3250532 -1.3913679 0.4595394 0.20051761 -0.4628625 -1.1664354 0.025676997 -0.27155352
-0.24112117 0.2421092 0.7688126 -0.3666918 -0.1501864 0.88698596 0.19574556 -0.6434676
0.46566972 0.576459 0.8664779 -0.41923827 0.15099841 1.2638459 -0.005849965 -2.1813498
0.013783009 2.0967991 -0.4209255 -0.3513837 1.070694 0.55692554 -0.02502603 -0.69928044
-0.2547196 -0.8544772 0.5182427 -0.16732024 0.42420197 -0.9718633 -0.10818196 -1.1097378
2.8225687 -1.314442 -0.28562477 2.536312 0.70090324 -0.55369693 0.28304458 -0.24827749
0.22295548 -0.07744474 -0.7695599 0.013144792 -3.1629498 1.0976683 0.25204915 -0.045366745
-0.60269034 -0.016305773 3.0488522 0.50654083 -1.0380224 1.2667065 2.3082452 0.92173356
0.90964234 0.0785551 0.7630328 -1.5926713 -0.90783197 0.16267113 -0.046882857 0.54633045
0.29383937 -0.9004853 -0.7207166 -0.5771576 -1.9137905 0.5915975 0.11567306 -2.7427955
00000000: d781 393e dee6 22bf 853e 98be 5dfe 493f
00000010: bb7e c1be 0b5b b0bc 42b8 94bd 8a2b 34be
00000020: 29cb 25be 1ab8 3bbe 9f2c b0be 7dfb 9bbe
00000030: 4d95 8abf b3fa 183e e25d 5dbe 01ea c2be
00000040: 6dc0 a23d c783 f53e 7721 3a3f af5a 123e
00000050: c386 3abe 710b 133f 9c12 933e 43db 0abd
00000060: 452a d3be df30 633e 4820 9d3d 4eff 893f
00000070: 4e50 97be 6a5b 683f b8fd 57be cb87 653f
00000080: 4a0b b33d 54f9 e23e 6f4d c73e 3a2e 9a3e
00000090: 8688 20bd a196 dbbc 0d97 c8be 722c e1be
000000a0: 86db efbe 8c78 683d 5ca2 4ebc b3a7 563e
000000b0: 160a 1bbb 18b3 85be abd3 f5bd 0455 debc
000000c0: c790 90be a6fc 3d3d 49d2 59be 11a5 96bd
000000d0: 2f5d 57be ab13 10be ef8d ae3e bb07 05bb
000000e0: 10b0 fa3e b85c 81be 22a5 25bf ef99 7f3d
000000f0: 67cb fc3c 8ca1 bd3e fd5f 073e 49ce 3bbe
00000100: 9f45 843e 4e57 193f 56d5 4ebf f1d4 00bf
00000110: f24e 5f3e c7ff 333e b288 a43e cf7c 98be
00000120: 8b6c 0f3f c9a9 b6bd 2e05 5bbe 690b 7f3e
00000130: 17e1 283f 5af9 053d 5802 093d a36d ed3e
00000140: 1663 b5be b953 5abd a71a 91be c4b3 bebd
00000150: fca8 83be cdeb 62bf aa59 9cbc e3b4 a3ba
00000160: 43ec c73e b608 61bc 0283 e8bd 77e7 8abe
00000170: 34ce 30be 4b76 87be 1fac 483d d0a8 bebd
00000180: 3be7 483f d72e 463f cec7 7b3e 8045 c7be
00000190: b784 a23d 6aa3 8f3e 429e 0bbe 7ccb e83e
000001a0: 3cc3 993e 006b fdbe 84ae 2cbe 195e 16be
000001b0: aa10 55be add3 563d cfff 2abf 8891 243f
000001c0: 7b65 87be ccd6 90bd 5bd9 6f3d ca58 d13e
000001d0: 6617 743c 127a e93d 110c e0bd 41bc 783e
000001e0: 10e7 8b3d 723f e83e 77c6 363e 0d85 113e
000001f0: 70ad 983e 5dd5 8fbb 709b b93e 06c9 933c
00000200: 62db 9cbe 2e79 2c3f 14e6 a13f 2210 e93e
00000210: 7806 a0be f2f8 0cbf 3d47 a7be 540b 843c
00000220: 3628 8b3f 541e ad3e c0ea 9a3e f4d8 6e3f
00000230: 6626 da3e b67a cabe 31ac 133e 46ce 9d3e
00000240: 1a02 dfbd 1409 04bc c384 9e3e 0f03 2dbf
00000250: 7491 e1be 23f8 1fbf a3f4 273f a042 b6be
00000260: 165d 943b b334 0440 98ef 2f3f 7f81 fc3e
00000270: fb01 8540 de6d 643e 5b1a 863e fb5c 083f
00000280: 39ec b03e 8564 92be 295f 2d3c a97e ac3d
00000290: b968 7d3e bed9 aa3f 5373 243f aa1a 43bf
000002a0: 961f 843f e92c a0bd 2e4b 70be e22d 183d
000002b0: 20c3 82be 12ea 8fbe f43d bebf 54df 01be
000002c0: 5f6d a6be 5818 b2bf c048 eb3e 7d54 4d3e
000002d0: 50fc ecbe c14d 95bf 9158 d23c 1009 8bbe
000002e0: 78e8 76be 79eb 773e e7d0 443f 07bf bbbe
000002f0: 77ca 19be 8311 633f 8671 483e 4bba 24bf
00000300: 436c ee3e d192 133f 7fd1 5d3f 66a6 d6be
00000310: 549f 1a3e b4c5 a13f 10b1 bfbb 3c9b 0bc0
00000320: 21d2 613c f531 0640 8c83 d7be 90e8 b3be
00000330: 800c 893f ac92 0e3f 6403 cdbc 0b04 33bf
00000340: 9b6a 82be 05bf 5abf 8eab 043f ff55 2bbe
00000350: 0031 d93e 09cc 78bf 818e ddbd e30b 8ebf
00000360: f7a4 3440 a33f a8bf 693d 92be f052 2240
00000370: 656e 333f 15bf 0dbf 38eb 903e 743c 7ebe
00000380: 714e 643e 599b 9ebd e101 45bf 415d 573c
00000390: c56d 4ac0 6580 8c3f 960c 813e 7bd2 39bd
000003a0: ea49 1abf af93 85bc 6520 4340 a9ac 013f
000003b0: ebdd 84bf 7023 a23f 4aba 1340 bbf6 6b3f
000003c0: 52de 683f 7fe1 a03d 1e56 433f a7dc cbbf
000003d0: ad67 68bf 4393 263e 3d08 40bd 50dc 0b3f
000003e0: 1d72 963e 3486 66bf e280 38bf 9ac0 13bf
000003f0: 16f7 f4bf ef72 173f ffe5 ec3d f689 2fc0

decoder.5.bias f4 [16]
-0.26311615 0.42708755 -0.18443225 0.7086067 0.7059428 0.12460943 0.3152889 -0.26601517
0.050881565 0.46309233 0.2739873 0.49610788 0.5940308 0.45022058 0.23148622 0.39289013
00000000: 29b7 86be 38ab da3e cfdb 3cbe 4067 353f
00000010: abb8 343f 3b33 ff3d 8c6d a13e 2433 88be
00000020: 3069 503d 701a ed3e 1048 8c3e da01 fe3e
00000030: 6712 183f 5083 e63e b90a 6d3e e528 c93e

decoder.7.weight f4 [16, 1, 3, 3]
-0.0036317746 -0.31444985 -0.41164717 -0.18316491 -0.9254695 -0.8776847 -0.2593535 -0.8197234
-0.6167984 0.20207295 0.37044507 0.11477965 0.034175396 0.04825291 -0.1766558 -0.17521504
-0.32564783 -0.31849054 -0.59984976 -0.7654193 -0.36514333 -0.94411814 -1.0714822 -0.41418844
-0.3632207 -0.20456122 0.0045494814 0.32174268 0.61854964 0.34866664 0.7195111 1.2665244
0.6268092 0.44469762 0.742067 0.35181946 0.21868229 0.5621143 0.29579744 0.6628633
1.3835866 0.6884539 0.36841848 0.7243442 0.30931827 -0.29317337 -0.61834955 -0.46168178
-0.5318916 -1.0616933 -0.72126305 -0.3243197 -0.57136345 -0.36871585 -0.7287867 -0.91914517
-0.18484232 -1.2258757 -1.2571354 -0.13221768 -0.6647165 -0.51214457 0.05880642 -0.23435964
-0.5671099 -0.33816966 -0.58769846 -1.2520572 -0.7104657 -0.37358338 -0.7123803 -0.3746252
0.3309838 0.14035928 0.104215786 0.33547944 -0.24228846 -0.104684934 0.085667886 -0.35604876
-0.15816203 0.42803285 0.50250924 0.232946 0.7798229 0.83395064 0.38317445 0.4663619
0.45268926 0.1816691 -0.5516346 -0.54846907 -0.14046168 -0.70963097 -0.56172305 0.0018702052
-0.22053713 0.0069355774 0.17685081 0.3723796 0.60757595 0.36361456 0.68279266 1.0820775
0.5739516 0.3914652 0.5631489 0.27812648 0.3134944 0.65300554 0.40235144 0.5872608
1.1063863 0.60457486 0.37369844 0.6308392 0.31389523 0.06067467 -0.32961866 -0.5495745
-0.22320768 -1.0760022 -1.1805837 -0.2936582 -0.90501237 -0.8728639 -0.5708145 -0.86030746
-0.4381183 -0.7209969 -0.91799104 -0.3499071 -0.2536877 -0.23162062 -0.01864267 -0.3696536
-0.6220423 -0.46002355 -0.6777346 -1.1136731 -0.7271109 -0.39976093 -0.6583201 -0.42732278
00000000: 1103 6ebb 92ff a0be 6bc3 d2be 958f 3bbe
00000010: 92eb 6cbf f2af 60bf fbc9 84be 65d9 51bf
00000020: 80e6 1dbf 36ec 4e3e faaa bd3e 9811 eb3d
00000030: 80fb 0b3d d8a4 453d 42e5 34be 926b 33be
00000040: 50bb a6be 3111 a3be c18f 19bf 85f2 43bf
00000050: 11f4 babe bab1 71bf 5426 89bf 8210 d4be
00000060: 10f8 b9be 7f78 51be d113 953b 75bb a43e
00000070: 4559 1e3f 6f84 b23e e131 383f 791d a23f
00000080: 9176 203f 68af e33e 1af8 3d3f ae21 b43e
00000090: 40ee 5f3e b9e6 0f3f c372 973e 69b1 293f
000000a0: 5e19 b13f 843e 303f 59a1 bc3e 9f6e 393f
000000b0: f75e 9e3e d21a 96be 284c 1ebf 8e61 ecbe
000000c0: 0c2a 08bf 91e5 87bf b2a4 38bf 3b0d a6be
000000d0: e044 12bf 53c8 bcbe c491 3abf 194d 6bbf
000000e0: 4e47 3dbe 7fe9 9cbf d0e9 a0bf 1264 07be
000000f0: dc2a 2abf e81b 03bf 00df 703d f9fb 6fbe
00000100: 1d2e 11bf 9324 adbe 6873 16bf 6943 a0bf
00000110: 15e1 35bf 5246 bfbe 8e5e 36bf e0ce bfbe
00000120: b576 a93e 58ba 0f3e 166f d53d f6c3 ab3e
00000130: 771a 78be 0e65 d6bd a572 af3d 064c b6be
00000140: 3af5 21be 1f27 db3e 72a4 003f 6589 6e3e
00000150: 79a2 473f ca7d 553f 712f c43e fdc6 ee3e
00000160: e3c6 e73e 7707 3a3e ed37 0dbf 7868 0cbf
00000170: 30d5 0fbe 60aa 35bf 15cd 0fbf ac21 f53a
00000180: 7cd4 61be d743 e33b 6118 353e 8aa8 be3e
00000190: 198a 1b3f b02b ba3e 80cb 2e3f 8481 8a3f
000001a0: 7eee 123f 206e c83e 872a 103f 9866 8e3e
000001b0: 5782 a03e 5f2b 273f 0201 ce3e b956 163f
000001c0: 119e 8d3f 6bc5 1a3f 6755 bf3e ae7e 213f
000001d0: e0b6 a03e 0186 783d c7c3 a8be eab0 0cbf
000001e0: 8e90 64be 71ba 89bf 5e1d 97bf 5e5a 96be
000001f0: e4ae 67bf 0274 5fbf e620 12bf 1c3d 5cbf
00000200: 0b51 e0be 4193 38bf 7601 6bbf 0627 b3be
00000210: 5be3 81be f52d 6dbe 83b8 98bc 3d43 bdbe
00000220: 2a3e 1fbf 3588 ebbe 0480 2dbf d78c 8ebf
00000230: f123 3abf 77ad ccbe ab87 28bf 0dca dabe
