youngjin/models/dkm_en.pth (torch, 136719 bytes, 8 tensors)

encoder.0.weight f4 [16, 1, 3, 3]
00000000: 2288 0bbc 49a7 513c 7c76 fbbb e722 c63c
00000010: 3a2d 5a3d 7ef3 533d afda 29bd 5705 9abd
00000020: 0517 1cbd ae52 db3c 952a 833c 2fef a63c
00000030: fed9 1e3d fcca 323d 4d55 503c 8a4d c83c
00000040: c1ad e23c 3f2e 6b3c b2df 23bd c685 623d
00000050: 7383 abbd d90e 403d 5753 9abd 18d3 013e
00000060: be54 84bb b7fa b83c b4d8 55bd c46a 84bd
00000070: 0f14 5ebc ac74 893b 61f3 79bd ff8e 793d
00000080: b23c 333d eab2 2cbc 40f2 0a3d b561 f73a
00000090: ab0c 6bbd 1d65 8bbd 1bcf 61bd f9b1 adbd
000000a0: f274 b83c e152 0c3c 8877 94bd d4ce 1ebc
000000b0: fb1a 743b 29d0 1a3d d4b1 c6bd 529b 413d
000000c0: 2d57 cd3c f962 3cbd 8a44 d23b 7187 a03c
000000d0: 9f55 9cbd c49c 903c 8aa2 163d 8c64 cebc
000000e0: 38b1 62bd 3cee 603d cfc4 99bc 644b 3fbd
000000f0: 8ce2 3f3d f418 b3ba 60c1 c0bc ac29 823b
00000100: a2cc 633c 1685 123d 8d75 13bd f2d7 953b
00000110: 43f5 213d d8ed 51bd 1204 84bc 3827 193d
00000120: 79fd 473d cbf9 b23c e6cc 52bd 71ed 6139
00000130: f20f 183d 7813 b3bd 6b7d 87bd e830 d5bd
00000140: 98e7 a2bc 1654 bab8 a003 913d 0c8c 03bd
00000150: f9b4 d7bc 50b6 a13d 8a5a 6dbd ab6e 313c
00000160: de07 1d3d 4275 74bd f6c0 31bc 4f03 94bd
00000170: 1cff 91bd 1d47 f33c 29dc d23c 964d 97bc
00000180: 067f 243d 817e 353d 16f7 e73c 9d36 113d
00000190: 0883 d73c 1ef5 f83c 8ca6 9abd 4033 91bd
000001a0: 08e6 c0bd da54 f73c b133 3d3d 1ba4 173d
000001b0: 3e1c f83c d624 e53c d65a 413d dace 273c
000001c0: 37de babc 4189 c4bc ac32 ccbb e421 26bd
000001d0: 985c f5bc 6bd2 36bd ed47 ec3d 68ba ccbc
000001e0: 688e 3d3c 718d dbbb 36a3 bdbb 17d6 3bbd
000001f0: ffe3 f03d d9ae 23bb 27f5 4c3c 82f7 31bd
00000200: 2224 be3b 11bf 04bd 613a 44bd e678 f53c
00000210: 7ea9 03bb 75d6 e63b 5db4 8a3d 2fef 0fbe
00000220: e154 663c 58b2 033d ad34 273d c4d7 ca3d
00000230: b2e4 45bd a57c 373d 6307 b6bc f113 8bbd
-0.008516343 0.012796232 -0.0076740365 0.024186565 0.053265788 0.051745884 -0.04146832 -0.0752055
-0.03810789 0.026772823 0.016011516 0.020377724 0.038782112 0.043650612 0.01271565 0.024451036
0.027670743 0.014354288 -0.040008254 0.055303358 -0.08374681 0.04688916 -0.07535427 0.12678182
-0.0040384224 0.022580488 -0.052208617 -0.064656764 -0.013554587 0.0041948166 -0.06102312 0.060927387
0.043759055 -0.010540703 0.033922434 0.0018873723 -0.057385128 -0.06806395 -0.05512915 -0.08481211
0.022516701 0.008564682 -0.07249361 -0.009692866 0.0037247527 0.037796173 -0.09701887 0.047267266
0.025065983 -0.045992825 0.006416862 0.019595833 -0.076335184 0.017652877 0.036776103 -0.025194429
-0.05534479 0.054914698 -0.018770603 -0.046702757 0.04684691 -0.0013664053 -0.023529708 0.003972253
0.013903769 0.035771452 -0.036000777 0.004572862 0.03954054 -0.051252216 -0.016115222 0.037390918
0.048825715 0.021847626 -0.051464938 0.00021546126 0.03712458 -0.08743948 -0.066157185 -0.10409719
-0.019885823 -8.8848334e-05 0.070807695 -0.03211598 -0.026331412 0.078961015 -0.057947673 0.010829608
0.03833758 -0.05968214 -0.010849228 -0.072271936 -0.071287364 0.029696995 0.025739746 -0.018469613
0.0401602 0.044310097 0.028316062 0.035452474 0.026307598 0.030390318 -0.075512975 -0.07089853
-0.09418875 0.030191828 0.046191875 0.037021738 0.030286904 0.027971666 0.04720577 0.010242188
-0.022811038 -0.023991229 -0.0062316265 -0.040559664 -0.029951379 -0.044634264 0.11537156 -0.02499123
0.011569597 -0.0067002107 -0.0057872785 -0.04585847 0.11762237 -0.0024976043 0.012509621 -0.043448932
0.005802647 -0.032408778 -0.047907237 0.029964875 -0.002009004 0.0070446082 0.06772683 -0.14056085
0.014058323 0.032152504 0.04082172 0.09904435 -0.048313804 0.044796605 -0.02222032 -0.06790913

encoder.0.bias f4 [16]
00000000: dca6 18bc 4468 70bc 0906 06bb 48f3 bcba
00000010: 037e 053d 3142 0739 d359 9f3b 86c0 65bb
00000020: d380 1b3c 93ac 25bd b4a2 3cbb 0de8 8fbc
00000030: 96b5 ddb8 23c9 d9bd fc8c e8ba 8266 28bd
-0.009317126 -0.014673296 -0.0020450375 -0.0014415765 0.032590877 0.00012899261 0.004863003 -0.003505738
0.009491163 -0.040447783 -0.0028783502 -0.017566705 -0.00010571924 -0.10634067 -0.0017742212 -0.041113384

encoder.2.weight f4 [32, 16, 3, 3]
00000000: 84a9 453d 8ff8 1bbc 599d b9bd 5748 9b3d
00000010: 3821 173d 8d4b 6bbd ac3d 4b3c 6bed 383d
00000020: 1139 43be be23 623e 5360 1c3d fcce a8bc
00000030: 72c4 8f3e 03dc 4dbd ef9f 33be e607 8b3d
00000040: 7018 edbd caad 8ebe 3005 6d3d 7279 e13c
00000050: c1dd 73bd 7460 7bbd 662f 563d 0a7d 02be
00000060: 1343 c33c 4505 033d 6f1f 6f3c 9626 853d
00000070: b560 b0bd 65b4 77be d96b a93d c6ec 22bf
00000080: 3fc7 94bc 6f70 32bd 89d1 9abe 3f28 4cbe
00000090: f5f6 5dbe 4774 cfbd 624e a7bd a178 83be
000000a0: ff9f cf3d aa8f c4bd bf7c 9c3d 409b 063d
000000b0: 9aa3 9dbc 4bb1 17bd 87a3 a53c 2d9f 823c
000000c0: e4e4 193d 7e1f 5dbc bb0a 3cbe da40 afbd
000000d0: cdc0 793d fa03 0cbe b651 053e aa6f 863c
000000e0: a9a4 c6ba 24b0 d03d 2a9a 36bd 448f 983e
000000f0: 9c1c 703d 9333 03be 56bb b73d e123 c2bd
00000100: 5abd 733d 63ba f2bc 1d76 0bbe 6b5b 97be
00000110: 39da a5be 4beb edbc 2ece debe 7a3b f9bd
00000120: 689b 4c3e c8c8 a03d ff53 c53d 998b 453c
00000130: 1771 d9bb a95a 203c 8ea6 983b 97b5 283c
00000140: b2b9 203e fa3c 013d 0257 dabc c442 803c
00000150: eec3 aabc 5047 1abd a75d 6e3d 9749 9e3c
00000160: 8dbe 87bd 3f7a c23d 5e24 02be 70e5 0bbd
00000170: ba61 a8bd 51fe 11be ad3c 36bd eaa3 c1be
00000180: f453 abbc 2d16 4abd 6c93 05be 21bf bd3c
00000190: 5502 88bd 0f82 0cbe 1e38 0a3d 8ac9 2fbd
000001a0: 4e84 433a c0ac 253c bfd1 043e 1b64 4bbc
000001b0: 5584 b03d 97f0 813d 4b15 6bbd d5e4 593e
000001c0: cd00 023e e02b 8abd 0847 5d3e 140e 2c3d
000001d0: 60b4 4d3c d3f6 e6bb bbaa 5e3c 1805 063d
000001e0: 763a 47bd 14c2 c1bd 2d02 5dbe 4da0 3bbb
000001f0: 214d 0fbe a8dc d3bd a372 ef3c 50c1 91be
00000200: a92e 3cbe e9b7 4d3d 737b 25be fcbc 8b3e
00000210: c581 2cbe 7c1f 4d3e 1573 4cbe 1a37 a93d
00000220: 93b0 323c c620 49bd edb0 913d 0bc5 b03b
00000230: b691 d83c 66d6 803c b76f 08be 329b 0fbe
00000240: b333 c83c 21f0 c33d 1b25 ab3d e842 85be
00000250: f278 c53e 8901 333e 4580 0fbe 7c0a 493e
00000260: b2b5 5ebd dbd7 38be 5e66 16be 13e8 0bbe
00000270: 1dc4 bfbe f780 dabe ae2d 7abe 5429 f13d
00000280: e0e1 ddbb 380b 913d dcde 9bbd caed 613d
00000290: 4285 37be e7be 443d 5098 7bbd 876f 56bd
000002a0: 8220 99bd 7d49 963d 25d8 5a3d 62f7 d4bc
000002b0: 5087 b83d f8d3 e83d 6b69 0fbf 711e d9be
000002c0: d27a 31bd ffad 93be 2589 f2be c7e9 55be
000002d0: 40bb 2b3e b754 b4bd 93b5 033d 3931 ac3d
000002e0: 5d8e ce3d 2a83 0e3e 6fbc b5be 6624 4a3c
000002f0: 8334 e8bd b3cc 433d 7cde 0d3e 85e5 96bc
00000300: 10a6 b33d b401 b0bc b8bc a0bd 9186 eabd
00000310: d42f 0cbe b759 dabd 3757 5abe ff13 a2bd
00000320: a817 60bd 4b20 9abe 21b7 ff3b 45c2 8e3e
00000330: 4684 8a3d 25b4 0e3e ca3c c73e 8f25 af3e
00000340: 3c04 8c3d 4e38 5abe c2f8 bd3e a4fc 3bbe
00000350: 1b0b e6bc 4c5c b5bc e9f5 873d 9124 8a3e
00000360: 8ae6 b1bd 2aaf 7c3d a766 9d3e be5a e73d
00000370: 91a0 7b3e bd44 083e b7c3 4d3d 0047 2bbf
00000380: 43a9 e0be 20a4 603e dfb5 33be 28f5 b03a
00000390: 92dc 01be 4ad9 83be 68c7 083e 9757 79be
000003a0: b936 d93b 4d13 d1bd 5a75 d6bd d67f 84be
000003b0: f67c 22bd 73a3 e23e 1034 c83e 7969 9d3d
000003c0: f6a8 8c3e 59ee 063e 8908 cb3d 56d6 86bd
000003d0: c41b ecbc f59c f6bc 3984 3b3e 0409 9dbe
000003e0: 4a0d 883d ef73 883d 04af 4cbd 520b adbd
000003f0: 6f3c 66bd 9d6d 56bd 905e 1e3e 7d44 83bd
0.048257366 -0.00951971 -0.09063215 0.07582157 0.036896914 -0.057445098 0.01240484 0.045148294
-0.19064738 0.22083947 0.0381778 -0.02060651 0.28079563 -0.050258648 -0.17541479 0.06788616
-0.11576927 -0.27866966 0.057866275 0.02752373 -0.059537653 -0.06137128 0.052291296 -0.12743011
0.023835694 0.031987447 0.014594897 0.065015 -0.086121954 -0.24189909 0.082725234 -0.6364254
-0.018161414 -0.043564256 -0.30237988 -0.19937228 -0.21676238 -0.101296 -0.08169247 -0.2567797
0.10137939 -0.09597714 0.07640981 0.0328629 -0.01924305 -0.037034314 0.020219577 0.015945042
0.037571803 -0.013496278 -0.18363468 -0.08557291 0.060974885 -0.13673392 0.13019451 0.016410667
-0.0015155274 0.10189846 -0.044580616 0.29796803 0.058621034 -0.12812643 0.08971278 -0.094794996
0.05950675 -0.029629892 -0.13619275 -0.29561934 -0.32393053 -0.02904286 -0.43516678 -0.121695474
0.19981158 0.07850796 0.096351616 0.012057208 -0.006635796 0.00978724 0.0046585267 0.010297201
0.15695837 0.031552292 -0.026652817 0.015656836 -0.02084538 -0.037665665 0.058194783 0.0193222
-0.066281416 0.09495973 -0.12709185 -0.034154356 -0.08221765 -0.1425717 -0.04449146 -0.3782037
-0.020914055 -0.049337555 -0.13044518 0.023162426 -0.0664107 -0.13721488 0.033744924 -0.042916812
0.00074583746 0.010111988 0.12970637 -0.012414004 0.0861899 0.06344717 -0.057393353 0.21278699
0.12695618 -0.0674665 0.21609128 0.042005613 0.012555212 -0.0070484667 0.01359051 0.0327197
-0.048639737 -0.094608456 -0.21582861 -0.0028629482 -0.13994266 -0.10344821 0.029229468 -0.28467798
-0.18377174 0.05022422 -0.16160373 0.2729262 -0.16846378 0.20031542 -0.19965775 0.08262463
0.010906356 -0.04910352 0.07113824 0.005394583 0.026436668 0.015727233 -0.13323866 -0.14024046
0.024438715 0.09567285 0.08356687 -0.26027608 0.38568836 0.17481054 -0.14013775 0.19632906
-0.054372497 -0.18051092 -0.14687487 -0.13662748 -0.3745431 -0.42676517 -0.24431488 0.11775461
-0.006771311 0.07082218 -0.076108664 0.055158414 -0.17921928 0.04803362 -0.061424553 -0.052352455
-0.074769035 0.073382355 0.053428788 -0.025996868 0.09010184 0.11368555 -0.5602023 -0.42406037
-0.04333002 -0.28843686 -0.47370258 -0.2088996 0.16770649 -0.088052206 0.032155585 0.08407826
0.100857474 0.13917223 -0.35495326 0.01233778 -0.11338141 0.04780264 0.13854402 -0.01841999
0.08771908 -0.021485187 -0.07848495 -0.11451448 -0.1369012 -0.10661643 -0.21322332 -0.0791397
-0.05471006 -0.30102763 0.007803813 0.2788259 0.067635104 0.13935907 0.38913566 0.34208342
0.06836745 -0.21310541 0.3710385 -0.18358094 -0.028081467 -0.022138737 0.066387005 0.26981023
-0.0868655 0.061690487 0.3074238 0.112966046 0.2457297 0.13307472 0.050235476 -0.6690521
-0.43879136 0.21937609 -0.17549847 0.0013500797 -0.12681797 -0.25751716 0.13357317 -0.24349819
0.006628838 -0.102087595 -0.10471602 -0.2587878 -0.039669953 0.44265327 0.3910222 0.07686133
0.27472657 0.1317686 0.09913737 -0.0658385 -0.028821833 -0.03010414 0.18312158 -0.3067094
0.0664316 0.066627376 -0.049971595 -0.08449425 -0.056209978 -0.05235063 0.1546576 -0.064095475

encoder.2.bias f4 [32]
00000000: bb20 2d3c 6d8a cb3c 8ea7 5b3c 8c92 cf3c
00000010: 8ae3 f03b 5dbc a23c 09c1 183d 5586 f43c
00000020: 4ae3 1fbc d536 523b 08da 963d b0bd 173d
00000030: 8308 573d 792e c73b fd18 e5bc 3252 4cbc
00000040: 1920 89bd 22c6 f53c e712 e3bc 4bea 02bd
00000050: b199 3e3d aeb8 c03c dea2 99bd eec0 89bb
00000060: 2b8f 483d d4e0 4ebc 1892 773b 8537 bbbc
00000070: a82d 37bb 01c9 15bc 32fd cbbc 392f febc
0.010566886 0.02484628 0.013406647 0.025338434 0.0073513435 0.01986521 0.037293468 0.02984921
-0.00975878 0.003207614 0.07365805 0.037046134 0.05249835 0.006078538 -0.027966017 -0.012470769
-0.06695575 0.030001704 -0.027718974 -0.03196172 0.04653329 0.023525562 -0.075017676 -0.004203907
0.04896466 -0.012626845 0.0037776288 -0.022853622 -0.0027950797 -0.009142161 -0.024901006 -0.031028377

encoder.4.weight f4 [64, 32, 3, 3]
00000000: b282 d83d 90a8 a8be ae9b 1fbd d690 96be
00000010: 6bc1 d63c 647f 193d da37 72bf 5aed 353e
00000020: 0e1d 323e c878 abbd 0432 073e d03d ac3d
00000030: c784 04be 6ece 9abd 0c57 59be 0643 e83e
00000040: 435d a13c df22 96bd 1f3e a9bd 1c59 643e
00000050: ac22 673e 92be e3bd 9435 453e 0f80 093e
00000060: 0e5d 943e b257 83be 2744 8bbc 8ea4 72bd
00000070: c057 2cbb dfa4 a13e 26fa c2be d49d a03c
00000080: db5f 013e b60b 97be 9fce 89bd c83b d53d
00000090: e29c 933e b8e0 ed3e b3fa 3ebe d4f3 1b3e
000000a0: c43c 323e 308c 06be d344 e43c 4878 2d3d
000000b0: d9d4 ae3e ebec 703e 96ef 58bd 4f49 04be
000000c0: 40dd 243e 1d91 db3d 7f77 b8bd f371 993e
000000d0: f10b 10be 8911 823e 5248 743e 8354 1c3d
000000e0: 9eb6 033e 4e06 94be 56b1 87be bb17 6d3e
000000f0: 8750 8fbd f7cf c0be 636e 28bd 7163 13be
00000100: 7a06 803d dc7c e2bc 11d8 81bc 28be 68be
00000110: 1f37 31be 9eb4 10be f9f6 c73e b210 ccbe
00000120: 7e17 c33e e00c cfbe d99d 93be 9a72 9abe
00000130: cbba a93d 2d25 9e3c 2e44 e2be 081d 20be
00000140: 35df 02be 4cf4 e63c 4ed0 1f3e 89b2 ce3e
00000150: a674 863e 83eb 303e 9e29 4bbe 43ab 7b3c
00000160: e8e0 a83e 53d5 4abe 66cd 393e b634 b63d
00000170: d717 513d af6e 2e3c a8c5 dcbe fa33 8b3e
00000180: 4c15 9b3e 2fda ca3d 00c5 ff3d f1e1 1e3d
00000190: 753e 403d 6663 8c3d e7b3 75be 3218 8bbe
000001a0: cc56 473d abfe 713d a7c5 883e 6641 2abe
000001b0: 4c3c 2dbe 8b01 17bb 16a4 8cbb 62bc bc3e
000001c0: 33a8 a83c a4e6 903e d6e1 6a3d c146 023e
000001d0: b0d0 d23e 75e9 87bd ee9d a33e 010b 9dbd
000001e0: 3d3d cc3d 4d30 29ba 6654 74be cd14 0f3d
000001f0: 1695 573d a405 9a3e d9a6 033b ebb2 0ebe
00000200: 73f7 8c3d 4b45 57be c4a1 75bc f53a f03d
00000210: 6dcd 86bf 3fe6 40be 459d cd3c 76e5 cd3d
00000220: ea15 4ebe c3f0 f6bd 4ddf 2b3e 9fe6 1b3c
00000230: 5d3b 0f3d 66f4 603e 4094 a7be d314 553e
00000240: 1e49 e7bc a6fa b13c ddcf 183c 405a fb3c
00000250: f0df 9ebc bf90 083d 68c4 c83c c3e6 9f3c
00000260: 068f bfbc 9cc7 21be 7834 363e 89f0 0dbe
00000270: dff8 db3e c6d5 4c3e 0c40 ed3e a25b 93bd
00000280: 1ca2 8ebc d1a8 363d 5341 8e3d cd0c 80bc
00000290: 71ee 8e3b 4981 0fbd 9d24 65bd 4e60 dcba
000002a0: b697 2d3c bac9 b73c 00d2 d4bd a516 a9be
000002b0: d8bb 83be 6990 12bf 73fa 3cbe 8e8a df3d
000002c0: 0f18 30bf cff9 333e 2f5f 133e 9e8a 4b3d
000002d0: 73a1 fcbd 8439 323e 078b 3cbc ead3 7abe
000002e0: a687 c5be 8eb5 b1bd 1fbc cbbd 339b c33e
000002f0: 5312 67be bb4c 4f3e 94ed 19be 0dfe 21be
00000300: 5d8e 583e 8d29 513c b5e6 c0bb 2436 b1bd
00000310: cb5d 08bf 58dd 803c 82b0 c2bc 3f58 313c
00000320: 5c23 103d 1b8f 46bd 9c9a 2dbd 47bd d3bc
00000330: 869f 513c 0e95 9cbc 4b86 d7bc e2c7 07be
00000340: 124a 54be 9f16 2dbf cde5 1cbe 1d93 303e
00000350: 6211 933d 7d6c 923e 19ef 74bd 40bf 2abf
00000360: ae41 2fbd 5f90 72bd 69d0 da3d c566 b73d
00000370: 91c3 e6bd 4d59 b13e e6a4 633d 7baa 32bd
00000380: 2c28 143d 11bd 2e3e 8de4 05be a26c 1c3e
00000390: fbaf efbc b5ab a7be 7bf4 83be ef8b 03bf
000003a0: 3212 19be fdc4 a0be 627f 413e 90b0 e03e
000003b0: b634 913d aeab 083e db4a db3d 8775 46be
000003c0: 0012 ca3c 4a1e e6bd 2678 e33d c7f1 3d3e
000003d0: a940 85ba 0e08 1d3e 206c 49be ad7e 843d
000003e0: 5473 00bc aaed 21be bfee 18be 4b3e d83d
000003f0: 464b b5be e438 833d 6d15 9dbe 07d1 a8bd
0.10571803 -0.32941103 -0.038966827 -0.29407376 0.026215276 0.037475005 -0.9461647 0.17766324
0.17393896 -0.083726466 0.13202673 0.08410227 -0.12941276 -0.075589046 -0.21224612 0.45363635
0.019697791 -0.0733087 -0.08263802 0.22299618 0.2257182 -0.11120333 0.1925872 0.13427757
0.28977245 -0.25652844 -0.017000271 -0.059238963 -0.002629742 0.315711 -0.38081473 0.019606508
0.12634222 -0.29501122 -0.06728863 0.10411793 0.2883063 0.4646051 -0.18650322 0.15229732
0.17405993 -0.13139415 0.02786485 0.042351037 0.34146765 0.23527877 -0.052962862 -0.1291859
0.16100025 0.107210375 -0.09007167 0.2996975 -0.14067055 0.25404003 0.23855713 0.038166534
0.12862632 -0.2891106 -0.26502484 0.23153584 -0.06997781 -0.37658665 -0.041120898 -0.14393403
0.06251235 -0.027647428 -0.015850099 -0.22728789 -0.17306183 -0.141314 0.39055613 -0.39856488
0.3810386 -0.4043951 -0.28831366 -0.3016556 0.08287581 0.019304836 -0.44192642 -0.15636075
-0.12780459 0.028192662 0.15606806 0.40370587 0.2626087 0.1727734 -0.19840094 0.015360656
0.3298409 -0.19807939 0.1814476 0.088967726 0.051048126 0.010646506 -0.4311955 0.27188092
0.30289686 0.099048965 0.12488747 0.038789693 0.046934564 0.06854896 -0.23994409 -0.27166897
0.04866676 0.05908076 0.26713297 -0.1662651 -0.16917533 -0.0023041691 -0.0042920215 0.36862475
0.020588016 0.28300965 0.05734428 0.12722303 0.4117484 -0.06636325 0.31956428 -0.076681145
0.09972618 -0.0006454036 -0.2386032 0.034931947 0.052632414 0.30082428 0.0020088463 -0.1393544
0.06883135 -0.21022527 -0.014992181 0.11729995 -1.0531441 -0.18837832 0.025099406 0.10053532
-0.20125547 -0.120576404 0.16784401 0.009515434 0.034968723 0.2196823 -0.32730293 0.20808725
-0.028233107 0.021725964 0.009326902 0.030682683 -0.019393891 0.033341166 0.024507716 0.019519215
-0.023383629 -0.15798801 0.17793453 -0.13861288 0.4296331 0.20003423 0.46337926 -0.07195212
-0.017411284 0.04459459 0.06946053 -0.015631104 0.0043619205 -0.035035405 -0.05594312 -0.0016813369
0.010595253 0.022435058 -0.10391617 -0.3302509 -0.2572925 -0.572516 -0.18454914 0.10915099
-0.6878671 0.17575763 0.14391778 0.049692743 -0.123354815 0.17404753 -0.011507756 -0.24494901
-0.38580054 -0.08677207 -0.099479906 0.38204345 -0.22565584 0.20244114 -0.15032035 -0.15819569
0.21148057 0.012766254 -0.0058868774 -0.08652905 -0.53268117 0.015730545 -0.023765806 0.010824262
0.03518997 -0.04847632 -0.042383775 -0.02584709 0.012794381 -0.019114044 -0.026309153 -0.13259843
-0.2073138 -0.6761264 -0.15322037 0.1724362 0.0718105 0.28598395 -0.059798334 -0.66698074
-0.042787246 -0.059219714 0.10684282 0.089551486 -0.1126777 0.34638444 0.05557718 -0.043619614
0.036171123 0.1706431 -0.13075466 0.15275815 -0.029258719 -0.3274819 -0.2577246 -0.51385397
-0.14948347 -0.3140029 0.18896249 0.43884706 0.07090132 0.1334674 0.10707637 -0.1938077
0.024666786 -0.11236246 0.11106901 0.18549262 -0.0010166365 0.15335104 -0.19670153 0.06469474
-0.007839996 -0.15813318 -0.14934824 0.105587564 -0.35408992 0.064073354 -0.3068041 -0.08242994

encoder.4.bias f4 [64]
00000000: 7b82 273c e71f 573d e89b 5d3d 7d4f 013e
00000010: da3a a93c 4450 a63d e13f dc3d 0a24 843d
00000020: d290 0b3e 6065 e13d 8c31 ff3d a689 7dbc
00000030: 2ebf 463d 7da0 fabb 1124 e3bc f80b 82b9
00000040: a1ad 05be a3a6 20bd 7b1b f6bc 0f77 5d3d
00000050: b842 ecbd afea c83c ae9b a13d 5e77 9abd
00000060: af8b 6f3d 4ad0 ad3d 783b 52bd f535 00bd
00000070: 872f 20bd aacf e83c f57a 6b3c df48 783c
00000080: e7f1 29bd 73dc 1bbd 34fb 2abe 38aa b73c
00000090: a072 55be 214a 923c 876a 293e 5302 97bd
000000a0: 1253 6e3d d956 d2bd 7be2 3b3d e9f1 b93d
000000b0: 3f0e a6bd 0231 19bd a5f5 913d fe36 113d
000000c0: 50a3 013e b0ad e23d ecb7 a9ba c2f8 063d
000000d0: 0522 f2b9 99b3 963c 11c2 d03c 5f10 2bbc
000000e0: 711b f1bb bf78 8fbc 0a38 023e ffa3 113c
000000f0: 7144 183e 259b b6bb f8d9 0d3d 542a 0ebd
0.01022398 0.05252066 0.054103762 0.12627979 0.020657945 0.08120778 0.107543714 0.064521864
0.13629463 0.11005664 0.12460622 -0.0154747125 0.048522167 -0.007648526 -0.027727159 -0.0002480445
-0.13054515 -0.039221417 -0.0300424 0.05406862 -0.11536163 0.024525968 0.07891022 -0.07542299
0.058482822 0.084869936 -0.051326245 -0.031301457 -0.039107826 0.028419334 0.014372577 0.015154093
-0.04149046 -0.038052034 -0.16697389 0.022420034 -0.20844507 0.017857613 0.16544543 -0.0737349
0.05818469 -0.10270471 0.045870285 0.09079344 -0.08108186 -0.037400253 0.07126931 0.035452835
0.12659955 0.110682845 -0.001294849 0.032952078 -0.00046183183 0.018396186 0.025483163 -0.010440915
-0.0073580076 -0.01751363 0.1271669 0.008889197 0.14869858 -0.005572694 0.0346317 -0.034708336

encoder.7.weight f4 [10, 1024]
00000000: 2031 983c 7b05 2f3e 6108 cd3e 388d 1b3e
00000010: abe5 9c3d abd7 10be c2cb 2fbd 7338 08bd
00000020: e3fd 24bc f875 6dbd a0d8 303c 4402 d6bc
00000030: 48e4 bebc 0e8c 0b3e 81df 113d d06e a43d
00000040: dc66 5bbe 4dcd 4a3e 3128 8e3d c203 a2bd
00000050: 21a5 10be 8485 8abd e9b1 d63d c972 f3bd
00000060: c908 61bb 2303 bfbd 725a 8f3d 867e cabd
00000070: 53e9 593e 27ca e53d f1b2 b4ba 07fb c73c
00000080: 8318 323e 4bba 05be 6e7a da3e 7656 e13d
00000090: 56cd eabd 2812 25bd 713e 16bd 46df 11bd
000000a0: 8528 e93d 5414 5cbd 3155 f7bc e7b7 a6bd
000000b0: 5bbf 023e d839 d83e 88e7 25be b47b 0cbe
000000c0: 181a 2f3e 97eb 6c3e 68a0 383d 528f 7e3e
000000d0: 636c ce3d df1a 67bb a470 623c 55e5 943d
000000e0: e815 2cbd 649d c53d 0cdd de3c cb5a 723e
000000f0: bf51 0c3d b665 d2bd 86c4 82bd 064b 0a3e
00000100: 4b26 9a3d ad70 58bd f78b 873c 5444 2a3c
00000110: c126 163f 85b0 3b3c ba39 26bc 8a53 d33d
00000120: 2c0c 8d3d daf8 28be 4311 e03c e96e b4bd
00000130: 86b5 9f3d 69eb e23c fc6e 3a3d 3006 3bbe
00000140: 52e1 cfbc ee40 e23c d84e e73e db36 b93d
00000150: 1dcd 03be 6de5 6f3d c61e 863c 9adf 2d3e
00000160: eded 3d3d 4bbf 85be 9403 04bd 295f 10bd
00000170: 2029 c13d e112 983d 32ef 5a3e 8bf1 823d
00000180: beeb c6bd 7df3 9f3e e791 523e 5316 e1bc
00000190: 4b46 2cbd 47b0 053e ffa7 c93c 6a18 7bbe
000001a0: 44db b4bc aa08 0bbc 10a4 c4bc bb3f 27be
000001b0: c074 153d 87b0 e23c b2b1 b3bd b005 97be
000001c0: e06e 33bd 56f3 98bd 5133 283d 4dfb 0bbe
000001d0: 8387 9e3d 1434 453d 0e48 7e3c 532a e53d
000001e0: 16da 0ebb ac20 96bd f37e 01be b506 d03d
000001f0: 91ef 533d c751 413d db87 84bd 2d7b ea3d
00000200: 82ee 9cbf 6554 153d d9ec a23d 174c d13e
00000210: 5682 edbd 4bf2 12bc b2f1 e93b 5aee f43e
00000220: b690 a93d 7150 a3be 64a2 2abd 017d dcbd
00000230: 1ae2 b9bd e133 2fbd 53f2 57be bc52 85bd
00000240: a7fe 243e d3ca 8b3c 8b72 ddbc b8fd dc3e
00000250: ff27 28bd f839 07bd 71f2 95bc a352 9cbd
00000260: f6e3 8cbe cacc a2bc 8bc0 3cbd 9319 f83c
00000270: dff9 79be 7205 b83d 229a 4e3d 5caa 00be
00000280: fc40 183e 35b4 103c c2e7 173e fefc 56bb
00000290: f457 f53d bee6 153e f408 513d 7cdb e83d
000002a0: 50ee 483e 6b6a b03d 7d05 2c3e 0bc7 97bd
000002b0: c264 c83d 2388 823b 8ead ae3e 85de 6d3e
000002c0: 1dc6 3c3f 5f9e f93d cd84 003f 4850 853d
000002d0: a2fc 413d 26a1 2abe 7b88 333d cf07 b9bc
000002e0: e2c2 31be cc94 453e c48e 423e 7ef4 3a3c
000002f0: 3900 efbe 2ed4 df3e 63b9 003e 0a37 1fbe
00000300: e7ff 38be d07e e03c a3f6 773d 3e9a d53d
00000310: 9ad9 2f3e 799d 983d c5bf a43e dc91 b8be
00000320: 9a24 ce3d 5611 0ebe d9a9 3a3f 19d0 553e
00000330: ae6f 4abc 094e 29be 27b8 7c3e 6da2 e7bd
00000340: 98ce 75bd 894a 83bd 078a 7ebd 1805 e1bd
00000350: 3dc2 2a3e 12a8 553f ed04 a53d 9185 e6bb
00000360: 5390 82bd cc62 f2bd 39b8 863d c020 9e3d
00000370: 024c 05bc f73f 0b3d 6a44 083e cfb4 7a3d
00000380: 5039 a5bc f02c 81bc f272 80bc 08e1 30bc
00000390: 8823 b53b 18dc 683c 82b3 8e3c f051 c4bc
000003a0: 900d 3a3b 7800 64bc 9cc0 98bc f0c2 353b
000003b0: 9851 03bc ac36 0abc 101d 603c 7768 25bd
000003c0: 7755 03be 7d15 af3d 88c8 203d 8be9 073e
000003d0: fbb6 3b3e 5cf3 94bd b083 983d a9b2 9c3d
000003e0: 32c1 f53d aa0b 3abc 32ff 6d3e 9bf3 b0ba
000003f0: e2cf e3bb 2799 c93f f408 e23e 0a50 983c
0.018578112 0.17091934 0.40045455 0.1519059 0.07660993 -0.14144771 -0.042918928 -0.03325696
-0.010070297 -0.057973832 0.010793835 -0.026124127 -0.023302212 0.13627645 0.03561354 0.08028948
-0.21425956 0.19804879 0.0694126 -0.07910873 -0.14125492 -0.06763747 0.104831524 -0.11887128
-0.0034337512 -0.0932677 0.06999673 -0.09887414 0.21280412 0.11220198 -0.0013786239 0.024411691
0.17392163 -0.13059346 0.4267153 0.11002819 -0.11464946 -0.04030052 -0.036680643 -0.03561332
0.113846816 -0.053730324 -0.03019199 -0.08140545 0.12768309 0.4223163 -0.16201603 -0.13719064
0.17099798 0.23136745 0.04507485 0.2485936 0.10079267 -0.003526382 0.013820801 0.07270304
-0.04201308 0.096491605 0.027205013 0.23667447 0.034257647 -0.10273306 -0.0638514 0.13505182
0.07526835 -0.05284183 0.016546233 0.010392267 0.58652884 0.01145566 -0.010145599 0.10318668
0.06887087 -0.1650118 0.027351981 -0.08810217 0.07798295 0.027700143 0.045516 -0.18264079
-0.025375996 0.027618852 0.4517734 0.09043666 -0.12871213 0.058568407 0.016372096 0.16979828
0.04636948 -0.26122507 -0.032229975 -0.035247 0.09431672 0.07425476 0.21380308 0.06393727
-0.09712933 0.31240454 0.2056347 -0.027476465 -0.042059224 0.13055526 0.02461624 -0.24521032
-0.02207721 -0.008485952 -0.024004012 -0.16332905 0.036488295 0.027672065 -0.08774127 -0.29496527
-0.04380691 -0.07468288 0.041064564 -0.13670082 0.077406906 0.04814537 0.015520109 0.11189713
-0.002179747 -0.073304504 -0.12646084 0.10157529 0.05174214 0.04719713 -0.06471225 0.11449275
-1.2260287 0.036457438 0.07955331 0.40878364 -0.11597125 -0.0089689 0.007139408 0.47838098
0.082795545 -0.3189731 -0.041658774 -0.1076603 -0.090763286 -0.042774085 -0.21088533 -0.06509921
0.16112767 0.017064488 -0.027032157 0.43162322 -0.04105377 -0.033014268 -0.018304082 -0.07632949
-0.2751767 -0.019873042 -0.04608206 0.030285632 -0.24411725 0.089854136 0.05043996 -0.12564987
0.1486854 0.008832027 0.14834502 -0.0032804604 0.11979666 0.14638802 0.05103393 0.11369988
0.19622159 0.086140476 0.16798969 -0.07411011 0.09784843 0.003983514 0.34116787 0.23229416
0.73739797 0.1218841 0.5020264 0.06509453 0.04736007 -0.16663036 0.04383133 -0.022586731
-0.17359498 0.19295043 0.18999773 0.011410831 -0.46679857 0.43716568 0.1257072 -0.1554834
-0.18066369 0.027404219 0.060537945 0.1042981 0.17172852 0.074519105 0.3217756 -0.36048782
0.10065575 -0.138738 0.72915417 0.20880164 -0.012355728 -0.16533674 0.24679624 -0.11310277
-0.060011476 -0.06410701 -0.062143352 -0.109873 0.16675659 0.8345958 0.0805758 -0.0070349653
-0.06375184 -0.1183525 0.065781064 0.0772109 -0.008135797 0.03399655 0.13307348 0.06120759
-0.02016893 -0.015768498 -0.01567981 -0.010795839 0.0055279173 0.014212631 0.01741958 -0.023964852
0.0028389432 -0.013916127 -0.01864653 0.00277346 -0.008015059 -0.008435886 0.013678804 -0.04038283
-0.12825571 0.085490204 0.03925374 0.13272683 0.1833152 -0.072729796 0.074469924 0.07651264
0.1199974 -0.01135532 0.2324188 -0.0013500334 -0.006952272 1.5749863 0.44147456 0.018592853

encoder.7.bias f4 [10]
00000000: ae5c bf3e 2dfb 51bc d077 883e b16e d73e
00000010: 96dc d43e e996 2ebd fc25 67bc 8568 b33e
00000020: a2f6 28bd 2cfa c03e
0.37375396 -0.012816233 0.2665391 0.42076638 0.41574544 -0.042624388 -0.014108177 0.3504068
-0.041250832 0.37690866
